song_embedding_cosine.pth (torch, 70464 bytes, 4 tensors)

fc.0.weight f4 [128, 100]
0.039417546 0.017103666 0.049655106 -0.091719426 0.06453822 0.10866814 0.0550332 -0.054239396
0.03916973 -0.07025057 0.10618522 0.030074231 -0.06281706 0.046156634 0.051976252 -0.075280085
-0.11112355 -0.079671234 -0.06213804 -0.054681245 0.008059959 0.07007917 0.020575438 -0.02884442
-0.046350885 -0.12471465 -0.029463785 -0.12945886 -0.053159058 -0.038224272 0.057349782 0.038328517
0.016758054 -0.012039797 -0.072393924 -0.09857083 -0.069928415 0.012090613 0.10501545 0.040153544
-0.12189311 -0.02588811 0.03610149 0.03960771 -0.05017894 0.015491135 0.027763538 -0.18443969
0.034634985 0.041141134 -0.043384302 -0.06122078 -0.0059359893 0.039427266 -0.07604269 -0.10610022
-0.10788902 0.021317683 -0.094401106 -0.07275237 -0.04105773 -0.091178924 -0.016786518 -0.09856818
-0.032839745 -0.053902682 -0.083080925 0.040111165 -0.034048077 0.09994931 -0.10838418 0.06322576
-0.030565111 0.055150717 -0.06637059 -0.012214436 -0.05063778 0.051549718 0.020601038 0.02658487
-0.043293715 -0.08493072 0.14311086 -0.07612362 -0.032325517 -0.08141311 0.010496604 -0.0831807
-0.005614012 0.06558797 0.11782861 -0.040835537 -0.095853575 0.03748865 -0.11637398 0.04974205
0.07353843 0.058779642 0.018682683 -0.0109358225 0.036360797 0.02769642 0.109820604 -0.06219833
0.077146865 0.051487695 -0.08251584 0.020160954 -0.12001884 0.077593625 -0.025784604 0.03936461
0.117575124 0.06875407 0.008507368 0.0824284 -0.0020439664 0.024766028 -0.052021675 -0.10346406
0.061200034 -0.07287997 0.0785303 0.03785217 -0.043000206 -0.063245565 -0.025248626 0.032837093
0.070566215 -0.036930237 -0.07912447 -0.07800675 -0.050185796 -0.05212677 -0.027985705 0.09427081
-0.056353197 -0.013251476 -0.0075724744 -0.097325094 0.005894629 0.14105429 -0.04466568 0.00548243
0.09201843 -0.040202867 0.061108943 -0.09928726 0.10506061 0.092197515 -0.09932193 -0.054823086
-0.08188367 -0.07324596 0.03294337 0.055746827 -0.09018566 0.03757039 -0.05146468 -0.08723854
0.038056474 -0.015080096 0.046637937 -0.11201708 -0.046889056 0.084608905 -0.035183363 -0.044157043
-0.015441701 -0.08601678 0.003200422 -0.013412255 -0.0832782 -0.0061182105 0.0060476465 0.03492432
0.048912164 -0.0036436561 -0.06648309 0.044789985 -0.00046432178 0.014552755 -0.029305352 0.10037508
0.07571743 0.023736797 0.06092429 0.03271708 -0.090107396 -0.07088061 -0.043380763 0.032226138
0.033341207 0.091064356 0.06605413 0.04306942 0.06536157 0.09027827 0.017979076 -0.06178627
-0.023260413 0.1120098 0.009130297 -0.067617744 0.021655671 -0.01686233 -0.08126246 0.06003505
0.008695159 0.09703349 -0.037323933 0.0026666548 -0.106306255 -0.096696325 0.071880005 -0.050396204
0.011614814 0.07715396 0.069330886 -0.0031675978 -0.10956991 0.0024034826 -0.082386576 -0.04332314
0.09042385 -0.10144306 0.036925156 -0.04460023 -0.118730456 0.027455239 0.063506685 -0.011398095
-0.08448223 -0.016818006 -0.07615309 0.093214124 -0.09533071 -0.03567694 -0.048882235 -0.08476766
0.00020214217 -0.069707215 -0.023305444 0.088484235 0.05418384 0.0075482293 0.045152724 0.10033456
0.020605415 -0.07477955 -0.07947501 -0.035283595 0.045320116 0.026778031 0.0065599624 -0.0865194
00000000: 4b74 213d fd1c 8c3c 2763 4b3d 65d7 bbbd
00000010: 9d2c 843d 678d de3d 7e6a 613d 212a 5ebd
00000020: 7070 203d 88df 8fbd a377 d93d 3c5e f63c
00000030: 3ba6 80bd bd0e 3d3d 0de5 543d 722c 9abd
00000040: be94 e3bd ac2a a3bd 7584 7ebd 71f9 5fbd
00000050: eb0d 043c ab85 8f3d d28d a83c 224b ecbc
00000060: 6dda 3dbd 656a ffbd 095e f1bc dd90 04be
00000070: 50bd 59bd 0e91 1cbd 9be7 6a3d 5dfe 1c3d
00000080: 3048 893c 9242 45bc 4443 94bd 81df c9bd
00000090: a136 8fbd b517 463c 5712 d73d 0b78 243d
000000a0: 18a3 f9bd 4d13 d4bc 28df 133d b23b 223d
000000b0: 6f88 4dbd 88ce 7d3c 5c70 e33c c2dd 3cbe
000000c0: 6add 0d3d 9b83 283d bdb3 31bd a4c2 7abd
000000d0: b082 c2bb 7c7e 213d 45bc 9bbd 124b d9bd
000000e0: ebf4 dcbd 6ca2 ae3c 5e55 c1bd 32ff 94bd
000000f0: 262c 28bd 04bc babd e183 89bc 1dde c9bd
00000100: f882 06bd 0fc9 5cbd 5526 aabd 9b4b 243d
00000110: ff75 0bbd 39b2 cc3d 86f8 ddbd 827c 813d
00000120: af63 fabc b8e5 613d 4eed 87bd 0f1f 48bc
00000130: 9069 4fbd cc25 533d 82c3 a83c 83c8 d93c
00000140: c054 31bd 28f0 adbd a78b 123e b3e6 9bbd
00000150: c367 04bd ebbb a6bd f3f9 2b3c a55a aabd
00000160: bff5 b7bb fc52 863d 2050 f13d 2a43 27bd
00000170: e14e c4bd b38d 193d 7b55 eebd 52be 4b3d
00000180: 519b 963d ecc2 703d 6d0c 993c 2a2c 33bc
00000190: 0fef 143d 9ae3 e23c a0e9 e03d adc3 7ebd
000001a0: 2dff 9d3d c3e4 523d 11fe a8bd 9628 a53c
000001b0: 70cc f5bd 68e9 9e3d 3c3a d3bc c93c 213d
000001c0: 3acb f03d efce 8c3d 7d62 0b3c 39d0 a83d
000001d0: 11f4 05bb 20e2 ca3c ae14 55bd f7e4 d3bd
000001e0: e3ac 7a3d 1842 95bd 7ed4 a03d e10a 1b3d
000001f0: fc20 30bd e486 81bd 35d6 cebc 3080 063d
00000200: 0585 903d 2944 17bd 030c a2bd 01c2 9fbd
00000210: 9f8f 4dbd e182 55bd 4742 e5bc 0e11 c13d
00000220: 9cd2 66bd b81c 59bc 8522 f8bb 6152 c7bd
00000230: bb27 c13b 8970 103e 5cf3 36bd f5a5 b33b
00000240: 2974 bc3d c3ab 24bd 5f4d 7a3d 1e57 cbbd
00000250: 042a d73d 0dd2 bc3d 4c69 cbbd 2c8e 60bd
00000260: a0b2 a7bd fa01 96bd a1ef 063d c956 643d
00000270: 42b3 b8bd 69e3 193d a1cc 52bd 1faa b2bd
00000280: 1be1 1b3d 8212 77bc 6c07 3f3d 3669 e5bd
00000290: bd0e 40bd 6f47 ad3d 6e1c 10bd 04de 34bd
000002a0: 30ff 7cbc 9129 b0bd 2cbe 513b 13bf 5bbc
000002b0: c38d aabd 457b c8bb 562b c63b ce0c 0f3d
000002c0: 1f58 483d 68ca 6ebb 4928 88bd b475 373d
000002d0: 3770 f3b9 ae6e 6e3c c711 f0bc 7391 cd3d
000002e0: bd11 9b3d ac73 c23c c08b 793d 5802 063d
000002f0: 3a8a b8bd da29 91bd 07b0 31bd 8eff 033d
00000300: ca90 083d f37f ba3d 6347 873d 8f69 303d
00000310: 49dc 853d d0e3 b83d db48 933c 9a13 7dbd
00000320: 9f8c bebc 6565 e53d 3e97 153c 2c7b 8abd
00000330: 3c67 b13c de22 8abc ef6c a6bd 50e7 753d
00000340: 2476 0e3c 7fb9 c63d fbe0 18bd 0bc3 2e3b
00000350: 18b7 d9bd b908 c6bd d335 933d 406c 4ebd
00000360: 104c 3e3c e502 9e3d 5afd 8d3d 7997 4fbb
00000370: 3066 e0bd bf83 1d3b 4bba a8bd 9b73 31bd
00000380: 2430 b93d 61c1 cfbd d53e 173d bbae 36bd
00000390: f428 f3bd cfe9 e03c cb0f 823d 13bf 3abc
000003a0: 0505 adbd eac5 89bc 27f6 9bbd 0ce7 be3d
000003b0: bf3c c3bd fc21 12bd bd38 48bd ab9a adbd
000003c0: 20f6 5339 a8c2 8ebd 0feb bebc 3937 b53d
000003d0: e0ef 5d3d 2357 f73b 10f2 383d 357c cd3d
000003e0: b0cc a83c 0526 99bd cbc3 a2bd 8885 10bd
000003f0: 96a1 393d 9a5d db3c f4f4 d63b 1531 b1bd

fc.0.bias f4 [128]
-0.0015473999 -0.0040036007 0.0046354528 0.08578269 -0.05764846 -0.013957069 -0.0032282064 0.02089543
0.0011886064 0.0086928755 0.05441436 0.04303627 -0.08215105 -0.11720325 0.0432733 -0.0036485614
-0.09346991 0.013103506 0.04577047 -0.04966232 0.02682164 -7.613795e-05 0.06552651 -0.0076609165
0.061883014 -0.0646183 0.009844422 -0.009708655 -0.014216161 -0.034736957 -0.032438193 0.08016053
0.044981275 -0.05137512 -0.025841424 -0.06875508 -0.06822166 -0.00019139834 -0.094200194 -0.06788562
0.052161384 -0.081885666 0.02261926 0.0004730152 0.03770136 0.08390948 0.04807894 -0.0771031
0.09823299 -0.016376862 -0.024257943 -0.088058874 0.032113258 0.08554295 0.0667123 0.067401595
-0.08674901 -0.088915974 -0.08827835 -0.00024735008 0.07590709 0.051608223 -0.034175906 0.077359855
-0.0016357979 0.0084351525 0.032389678 0.04497753 -0.09075296 0.026406292 -0.004520776 0.027052695
0.08999229 -0.046125963 0.034308646 -0.088837355 -0.060505655 0.09365906 -0.0051993015 -0.031438462
-0.09557001 0.045940813 -0.013860037 0.06651939 0.026929755 -0.025547776 0.05812658 0.0042671906
-0.053415097 0.019612037 0.074278034 -0.07794255 0.013780986 0.043420028 -0.051517252 0.039698057
-0.06536914 0.008533644 0.044422973 0.023222934 0.004939411 0.0002331585 -0.0011260887 0.037343103
-0.08094689 0.028331209 0.07252648 3.7853752e-06 -1.6337151e-05 -0.071922645 -0.0016317082 0.056946266
-0.0204638 0.04489077 -0.019484336 0.02400773 0.043657914 -0.024575574 0.09464492 -0.063896604
0.062126774 -0.02791489 0.040616572 0.026168147 0.07435388 -0.06139155 0.07874834 -0.0301126
00000000: 20d2 caba a330 83bb ffe4 973b d6ae af3d
00000010: cb20 6cbd 31ac 64bc 5190 53bb e52c ab3c
00000020: 03cb 9b3a 906c 0e3c 98e1 5e3d cd46 303d
00000030: cf3e a8bd 4208 f0bd 583f 313d b41c 6fbb
00000040: 276d bfbd 16b0 563c d179 3b3d b86a 4bbd
00000050: 0eb9 db3c 40ac 9fb8 c332 863d 6d08 fbbb
00000060: 0b79 7d3d 9956 84bd 804a 213c 0d11 1fbc
00000070: e7ea 68bc 5748 0ebd e9dd 04bd 342b a43d
00000080: 493e 383d b86e 52bd 65b1 d3bc 77cf 8cbd
00000090: ccb7 8bbd 1ab2 48b9 08ec c0bd 9e07 8bbd
000000a0: 2da7 553d acb3 a7bd 074c b93c 07ff f739
000000b0: be6c 1a3d bcd8 ab3d 6cee 443d 3be8 9dbd
000000c0: 612e c93d c528 86bc 98b8 c6bc 3658 b4bd
000000d0: 3189 033d 2431 af3d 75a0 883d d909 8a3d
000000e0: 77a9 b1bd 9419 b6bd 48cb b4bd c4ae 81b9
000000f0: 2d75 9b3d 2563 533d 09fc 0bbd d86e 9e3d
00000100: 4568 d6ba 9833 0a3c 0aab 043d 5c3a 383d
00000110: b0dc b9bd 0252 d83c 0523 94bb 9d9d dd3c
00000120: e14d b83d 94ee 3cbd 3987 0c3d 5cf0 b5bd
00000130: c7d4 77bd 52d0 bf3d e75e aabb 9ec5 00bd
00000140: 36ba c3bd 6f2c 3c3d 3515 63bc 513b 883d
00000150: ca9b dc3c 9249 d1bc 2316 6e3d cad3 8b3b
00000160: cac9 5abd 6ca9 a03c 151f 983d 58a0 9fbd
00000170: a5c9 613c 33d9 313d c103 53bd 6e9a 223d
00000180: 41e0 85bd b2d0 0b3c ddf4 353d 063e be3c
00000190: c8da a13b 027c 7439 4499 93ba 15f5 183d
000001a0: 7cc7 a5bd da16 e83c c388 943d 4008 7e36
000001b0: c40b 89b7 2e4c 93bd 0bdf d5ba 7d40 693d
000001c0: b3a3 a7bc 62df 373d 9d9d 9fbc dcab c43c
000001d0: a4d2 323d b752 c9bc 32d5 c13d 39dc 82bd
000001e0: a578 7e3d c4ad e4bc 905d 263d 955e d63c
000001f0: d946 983d b575 7bbd cf46 a13d b3ae f6bc

fc.2.weight f4 [32, 128]
-0.015986383 -0.049735915 -0.0049316883 -0.028645199 0.08466053 -0.052043714 0.053614683 0.02270676
0.0008886232 0.08379774 0.00048354326 -0.046057694 -0.018609013 0.096091315 -0.05516486 0.023171393
-0.09746407 0.11108721 0.025746051 -0.08758523 -0.0045446632 0.08139004 -0.08154286 0.062868476
0.062322963 -0.14048198 -0.077528134 0.059772715 -0.0034229583 -0.049851462 0.004493123 0.049988292
-0.07660508 0.0060033435 -0.008452878 0.044857062 0.02005908 0.043947045 -0.0639958 -0.021011805
-0.067981005 0.04325753 -0.0326441 0.066927865 -0.007004853 0.014079801 0.047139652 -0.04619577
0.025763556 0.028480267 0.036500424 -0.09651073 -0.0851851 0.05570486 0.003115914 0.09031547
-0.080096856 0.02598477 0.0013833679 0.06380641 -0.03931846 -0.045797803 0.08320658 -0.04861937
0.023475451 0.091061965 -0.043729763 0.05902939 -0.04574124 -0.008363329 0.07674152 -0.07917379
-0.021552445 0.052409537 -0.04765242 -0.10425151 0.0028351813 0.056458708 0.10425121 0.1187203
0.062766016 -0.026303558 -0.008047114 0.0808164 -0.0006988791 -0.046650708 -0.024241617 0.0428039
0.06926026 -0.0670883 0.022725381 0.037554607 0.07182121 0.07421339 -0.06530626 -0.05699398
0.029559659 0.0050315815 0.030742435 -0.043869056 0.064022206 0.064744055 -0.0053259972 0.033018705
-0.026830718 -0.053838115 0.08294729 0.074907616 0.071289495 -0.089414276 0.035066247 -0.019207321
-0.04263185 0.09731295 0.018230572 -0.048894238 0.035679314 -0.04130049 0.07091218 -0.013169979
0.061542034 0.048249733 -0.0304263 0.043368828 0.07446897 -0.011992245 0.030198561 0.053711727
0.058218352 -0.037689444 0.014302599 0.058701485 0.036922805 0.0077808094 -0.053779494 -0.07367407
-0.10538085 -0.079422615 0.1116975 -0.009928174 0.0050262343 -0.13372627 0.10877363 -0.07550266
0.03205437 -0.06932433 -0.012070234 0.00014613428 -0.058792394 0.11475551 -0.024500823 0.11259779
0.051441368 -0.1063471 -0.034313593 0.08374977 0.018555136 -0.016003484 0.031506896 0.032491025
0.008742882 -0.089448445 -0.039400432 0.08257827 -0.072577834 -0.009860106 0.009169235 -0.07966976
-0.048918825 -0.008594043 0.030635698 0.0024504904 0.059620436 -0.0443696 0.10325313 0.0900401
-0.03427979 -0.06996739 -0.023926862 0.03483972 -0.055819385 0.028393924 0.0434031 -0.014932147
-0.09397986 0.027149111 -0.09142363 -0.024057763 -0.07878263 -0.04359658 0.06901077 0.061990697
0.117724344 0.13312517 0.06966739 0.06594022 0.040541183 0.10363593 -0.09181981 0.051740095
-0.038605664 0.08895421 -0.051240996 0.0072935247 0.04924749 -0.038417794 -0.039009176 0.029900614
-0.07454056 -0.06929312 -0.05843518 -0.025203811 0.03569632 -0.022962641 -0.031894017 0.04211237
0.012766032 0.08508689 -0.09104192 0.053209625 -0.030567247 -0.008709975 0.053516336 -0.035145126
-0.052553147 -0.069433875 0.012437916 0.03156302 0.020700501 -0.0314785 -0.05320271 -0.014431562
0.061719716 0.056803413 -0.07505044 -0.015533384 -0.031944856 -0.10310079 0.06462222 0.07966558
0.087368414 0.09876948 -0.055551045 0.024613282 -0.020700164 -0.084095255 0.039152328 -0.054472614
0.029886412 -0.07766631 -0.06761956 -0.03434753 -0.017933339 0.045616798 0.08706364 -0.037140854
00000000: e0f5 82bc e3b7 4bbd 009a a1bb 56a9 eabc
00000010: 8062 ad3d ca2b 55bd 129b 5b3d 8703 ba3c
00000020: 7ef2 683a 269e ab3d 1484 fd39 fea6 3cbd
00000030: ee71 98bc 86cb c43d 8cf4 61bd efd1 bd3c
00000040: 3e9b c7bd b181 e33d 62e9 d23c e35f b3bd
00000050: 66eb 94bb d2af a63d f1ff a6bd 30c1 803d
00000060: 5d46 7f3d 82da 0fbe 12c7 9ebd 3cd4 743d
00000070: b653 60bb 0c31 4cbd 0c3b 933b 86c0 4c3d
00000080: 20e3 9cbd b2b7 c43b f17d 0abc 0abc 373d
00000090: f152 a43c d101 343d 3b10 83bd f320 acbc
000000a0: a039 8bbd cf2e 313d d2b5 05bd 7a11 893d
000000b0: f788 e5bb f7ae 663c 8215 413d c737 3dbd
000000c0: 180e d33c 734f e93c 7881 153d 6ba7 c5bd
000000d0: 8775 aebd c72a 643d 5d34 4c3b 51f7 b83d
000000e0: d209 a4bd 03de d43c 2052 b53a efac 823d
000000f0: 650c 21bd 7a96 3bbd 3668 aa3d 1b25 47bd
00000100: 974f c03c b27e ba3d fb1d 33bd cdc8 713d
00000110: 2b5b 3bbd 5806 09bc a82a 9d3d de25 a2bd
00000120: c18e b0bc 62ab 563d 2f2f 43bd d181 d5bd
00000130: 73ce 393b 3f41 673d a981 d53d a123 f33d
00000140: 788b 803d 8f7a d7bc 0bd8 03bc 1283 a53d
00000150: fc34 37ba d014 3fbd 5b96 c6bc 2453 2f3d
00000160: 53d8 8d3d 9765 89bd 942a ba3c dcd2 193d
00000170: 0017 933d 31fd 973d 4abf 85bd 8572 69bd
00000180: 1927 f23c f7df a43b 8fd7 fb3c 0ab0 33bd
00000190: 131e 833d 8898 843d b485 aebb 9f3e 073d
000001a0: 18cc dbbc 5b85 5cbd 45e0 a93d 2a69 993d
000001b0: 3a00 923d d51e b7bd a0a1 0f3d ac58 9dbc
000001c0: bc9e 2ebd 034c c73d 4858 953c 5345 48bd
000001d0: 7924 123d b42a 29bd 683a 913d e5c6 57bc
000001e0: 8013 7c3d 83a1 453d 9340 f9bc 83a3 313d
000001f0: 3083 983d 1f7b 44bc f962 f73c d400 5c3d
00000200: 5e76 6e3d 3f60 1abd 7355 6a3c f870 703d
00000210: 5e3c 173d 29f6 fe3b e347 5cbd 6ee2 96bd
00000220: ead1 d7bd 53a8 a2bd a9c1 e43d c8a9 22bc
00000230: 1cb3 a43b 8aef 08be b5c4 de3d 23a1 9abd
00000240: 714b 033d eaf9 8dbd 3bc2 45bc 9f3b 1939
00000250: 4bd0 70bd f004 eb3d f3b5 c8bc ac99 e63d
00000260: 2fb4 523d 82cc d9bd 698c 0cbd 0085 ab3d
00000270: f100 983c bd19 83bc 600d 013d 4f15 053d
00000280: 4e3e 0f3c bf30 b7bd 5962 21bd cc1e a93d
00000290: b0a3 94bd 488c 21bc 8f3a 163c e629 a3bd
000002a0: 1b5f 48bd 07ce 0cbc b7f7 fa3c 6898 203b
000002b0: 8f34 743d e6bc 35bd 6176 d33d f266 b83d
000002c0: f768 0cbd 104b 8fbd 4402 c4bc 18b4 0e3d
000002d0: dea2 64bd 609a e83c 73c7 313d f7a5 74bc
000002e0: 8378 c0bd d067 de3c 503c bbbd c914 c5bc
000002f0: ca58 a1bd 5492 32bd 8555 8d3d f5e9 7d3d
00000300: 7619 f13d f751 083e c7ad 8e3d ab0b 873d
00000310: 830e 263d 133f d43d 060c bcbd 6ced 533d
00000320: f920 1ebd a02d b63d 14e2 51bd 85fe ee3b
00000330: bcb7 493d fa5b 1dbd 16c8 1fbd 22f2 f43c
00000340: b9a8 98bd 8de9 8dbd ba59 6fbd 3978 cebc
00000350: 4e36 123d 261c bcbc 4da3 02bd 057e 2c3d
00000360: 9e28 513c 0942 ae3d 3074 babd 56f2 593d
00000370: 2a68 fabc 48b4 0ebc f233 5b3d 56f4 0fbd
00000380: f841 57bd 5933 8ebd 67c8 4b3c 3a48 013d
00000390: 1994 a93c 9aef 00bd 16eb 59bd 5c72 6cbc
000003a0: d0cd 7c3d b2aa 683d 0cb4 99bd bc7f 7ebc
000003b0: 9cd8 02bd 8226 d3bd a858 843d b527 a33d
000003c0: 36ee b23d a747 ca3d 7e89 63bd cba1 c93c
000003d0: 6493 a9bc 223a acbd 315e 203d ad1e 5fbd
000003e0: 59d4 f43c 840f 9fbd 207c 8abd ffaf 0cbd
000003f0: f0e8 92bc aed8 3a3d 6c4e b23d 0221 18bd

fc.2.bias f4 [32]
-0.07192149 -0.016081747 0.037292425 -0.04136185 0.049395446 0.011307153 0.046762675 -0.028367188
0.04552678 0.036279086 -0.05268208 0.05706365 0.044945046 0.035117596 0.015558127 0.059593644
-0.05375824 -0.0401421 -0.026410982 -0.031119643 -0.065746635 0.02452527 0.015228606 0.0009994148
-0.0578509 -0.030098593 -0.05001969 0.017729502 0.014615403 -0.033146746 0.042879492 0.02707488
00000000: 934b 93bd debd 83bc f1bf 183d 0b6b 29bd
00000010: e152 4a3d a341 393c 388a 3f3d 4e62 e8bc
00000020: 4a7a 3a3d 6199 143d 2ac9 57bd 93bb 693d
00000030: 4c18 383d 78d7 0f3d 84e7 7e3c 7718 743d
00000040: 9a31 5cbd 0b6c 24bd d85b d8bc 9fee febc
00000050: 2ca6 86bd 38e9 c83c 6781 793c ccfe 823a
00000060: 11f5 6cbd 5391 f6bc 72e1 4cbd 763d 913c
00000070: 7175 6f3c e2c4 07bd 68a2 2f3d 24cc dd3c
