song_embedding_euclidean_small.pth (torch, 70552 bytes, 4 tensors)

fc.0.weight f4 [128, 100]
00000000: 11c6 76bc e40a d5bd c335 dfbc de22 26bd
00000010: 25db 4bbd f8fd 5abd 51e0 833d 4024 d0bd
00000020: 0ced 203d 5a10 0dbd 0e6b 8dbd af7b 11bd
00000030: a514 b9bd c133 adbd bbc3 a0bc 2ab3 42bd
00000040: fa9d b7bd 7a87 77bd 1bd0 ab3a 0763 62bd
00000050: 1c1d 5abb a906 9ebd 670c a03d 7ba8 2abd
00000060: 8506 ed3d 86b2 d63c a630 cc3c 50ca 26bd
00000070: 315a ecbd 349b f83c bfa1 02bd 3a7d 1bbd
00000080: 33dd c7bd c4c4 303d 8bd7 32bd cc7c edbc
00000090: c1c5 0abd 332e b5bd 9f73 80bd b2ca a43d
000000a0: 222a 5e3d 6cdb 5abd 46fb 1d3d 6fa8 323d
000000b0: 6335 aabc c709 d63d bd2a fd3d 3b75 243d
000000c0: 00ff 0bbd ab02 ea3c 2ca2 843b 97c5 693d
000000d0: 64fc bd3d 8c94 233d 8796 b9bd db8b cbbd
000000e0: 0031 9bbc 3c49 c0bc a557 873d 0020 3a3d
000000f0: a91b 9a3d 0afb 1dbd dbe0 683d b37d 1e3d
00000100: e2da 623d 39b5 8f3d 08ba 75bd 2c8e 923b
00000110: 4cc1 d1bd 3865 90bd bbcc ae3d a636 463d
00000120: 15ed f4bc 2904 833d 1006 31bd 1f3b 473c
00000130: 4029 b7bd 9307 68bd 74c3 613d 05b2 babb
00000140: 0463 da3c 8e64 c5bc 8753 783d d865 59bd
00000150: 0e07 0c3a d540 543c ab2a b03d f737 ccbd
00000160: a181 1cbd aa82 40bd 6245 503d f690 9dbc
00000170: 005a 80bd 6912 933d 3205 0fbc 434a acbd
00000180: 90c4 663d 3c71 8b3d b72e afbd bb83 9b3d
00000190: c64f 503d 2db0 e7bd 5cf6 6c3c dbf7 4a3d
000001a0: 07f4 fbbd 3386 943d 88a2 ae3c 1260 633d
000001b0: 48ee 9bbd ba90 a13d 0e7d 9abd f1af c63d
000001c0: 9f9a adbd 2af4 99bc 9153 a93d 6156 013e
000001d0: 08ad be3d 763f c63c 8c12 cdbd 474e a53d
000001e0: c0ab 423d 44c9 9ebd b094 773d b431 b13d
000001f0: 7d49 89bd fa77 6e3d d18d 783d 8b71 d3bd
00000200: dfb5 b4bd 9da2 bc3c 4732 a53d 1f55 a73d
00000210: 81e2 533d e172 38bd 3f13 ab3d 922d 213d
00000220: 3d63 a9bb 0d06 e53d 71fd b63d 5589 0abd
00000230: cbc9 debd a917 b13d 7d87 6dbd 4d53 a13c
00000240: 6182 abbd 4f8d f53d 81f1 a2bc db40 9e3b
00000250: 3796 d13d 1f7d 5f3d a8c0 57bd f854 e23d
00000260: 873c ac3c 6650 dabc 52c2 74bd 0d9e 6a3d
00000270: 4da7 67bd c7d4 cdbd fc98 873d bae6 81bd
00000280: 3d48 c5bd c82b 96bc 69c3 c6bd 7964 a43c
00000290: 3ecd 933d 1174 c53d 19ef 5dbd 35ea 30bd
000002a0: 32c8 09bc dc4d e3bc 343a c83d 9164 b13d
000002b0: 7222 283d 6bf0 d5bd 7a8c dd3c a233 bdbd
000002c0: fdde 5b3d e2a9 c6bd 03a4 a6bd c752 cebc
000002d0: c18a 5ebd 0df4 bb3d cb2f 86bd ea63 e8bc
000002e0: affd 093e 16a6 bdbc 4e26 8abd c8b5 3ebd
000002f0: 65d9 7abd 3759 aebd f351 b8bd 4c97 acbd
00000300: 22a5 63bd e0fb 85bd dfb4 b03d 9596 6abd
00000310: 2963 0b3d 2397 3d3a 353a 533d df81 f1bd
00000320: d34d a73d e0bf ac3d 7652 8bbc d6a2 0d3d
00000330: 7fbd 80bd 92b9 dabc 54ce 653d ee7c 933d
00000340: 5a61 033a 3efc b6bd a08b de3c c5ba 8abd
00000350: 092c 12bc da08 363d 5b3c d1bd b4fc a63c
00000360: 50c4 a93c 99a8 3b3d 8851 343d c063 2e3c
00000370: 1e01 63bd ee52 d03c 3bcd 8e3b 327c 5dbc
00000380: 3c2d 243c 0560 a9bd c0d2 723d 4df7 a83d
00000390: b87f 193d d735 213d 3192 ddbc b98a 8abd
000003a0: 22f4 8f3d 51e0 9c3c a010 d23d 07b6 aa3b
000003b0: 223e 37bd 7d79 1a3d a056 14bd f42f 59bd
000003c0: 45ee b93d e7a7 ba3d 6dd0 1dbd ceec 33bd
000003d0: d279 c5bb 8083 24bd f0df 2abd 92e9 afbd
000003e0: 1f3f b43d 5e24 bfbd 6f88 94bd 622e 653d
000003f0: b681 ad3a cce4 8d3b f372 6eba 817d b13d
-0.015061871 -0.10402468 -0.027247315 -0.040560596 -0.04976954 -0.05346486 0.06439269 -0.10163164
0.039288566 -0.034439422 -0.06905185 -0.035518344 -0.09037141 -0.08457137 -0.019624582 -0.047534145
-0.089656785 -0.060431935 0.0013108285 -0.05527022 -0.003328151 -0.07716114 0.078148656 -0.04166458
0.11573509 0.026208173 0.024925541 -0.040720284 -0.1154064 0.030347444 -0.031892534 -0.037961222
-0.09758987 0.0431564 -0.04366259 -0.028990172 -0.03388 -0.088467024 -0.06272053 0.080464736
0.0542394 -0.053431913 0.03856971 0.043617662 -0.02077741 0.10451084 0.12361667 0.040150862
-0.034178734 0.028565725 0.0040476527 0.057073202 0.09276655 0.039936587 -0.09061914 -0.09938785
-0.018944263 -0.02347242 0.06608514 0.045440674 0.07524807 -0.038569488 0.056855064 0.038694095
0.055384524 0.07016987 -0.059991866 0.0044725146 -0.102419466 -0.07050556 0.08535143 0.04839196
-0.029898206 0.06397278 -0.043218672 0.012160092 -0.08943415 -0.05664785 0.05511804 -0.005697491
0.026658542 -0.0240958 0.060626533 -0.05307564 0.00053416274 0.01295491 0.08601888 -0.09971612
-0.03820956 -0.04699961 0.05084742 -0.019234162 -0.06267166 0.07181246 -0.008729266 -0.08412602
0.0563398 0.06808707 -0.08553832 0.07593485 0.050857328 -0.113129 0.0144630335 0.04955278
-0.12302404 0.07252159 0.021317735 0.05551154 -0.07613808 0.078889325 -0.075433835 0.09701527
-0.08476757 -0.018793184 0.08267892 0.12630607 0.09310347 0.024200182 -0.10013303 0.08071571
0.047527075 -0.07753232 0.060444534 0.08652058 -0.0670347 0.058219887 0.06068212 -0.10324391
-0.08823752 0.023026759 0.0806623 0.081705324 0.051729683 -0.045031432 0.0835328 0.0393501
-0.005169301 0.11182795 0.08935059 -0.033822376 -0.10878333 0.08647091 -0.05799054 0.019693041
-0.08374477 0.11989843 -0.019890549 0.0048295087 0.10233729 0.054562684 -0.052673966 0.11051363
0.021024955 -0.026649665 -0.05975563 0.057279635 -0.056556035 -0.1005035 0.06620976 -0.06342836
-0.09632919 -0.018331423 -0.0970524 0.02006744 0.07216881 0.096412785 -0.0541831 -0.043192107
-0.008409547 -0.027747087 0.09776726 0.0866176 0.041048475 -0.10446247 0.027044524 -0.09238364
0.053679455 -0.09700371 -0.081367515 -0.025185956 -0.054331545 0.09177408 -0.065520845 -0.028367955
0.13475679 -0.023150485 -0.06745587 -0.04656008 -0.06124248 -0.0851311 -0.090000056 -0.08427295
-0.055577405 -0.06542182 0.086282484 -0.057272512 0.034030113 0.0007232299 0.051569182 -0.11792349
0.08169141 0.08435035 -0.017007094 0.03457912 -0.062861435 -0.026699815 0.056104973 0.07201563
0.000501176 -0.0893483 0.027166188 -0.06773905 -0.008921632 0.044442035 -0.1021659 0.02038417
0.020723492 0.045815084 0.044023067 0.010643899 -0.055420987 0.025430169 0.0043579615 -0.01351838
0.01002055 -0.082702674 0.059283018 0.08250294 0.037475318 0.039357986 -0.027047249 -0.067647405
0.070289865 0.019149931 0.10257077 0.0052096876 -0.04473699 0.037713517 -0.036215425 -0.053024247
0.090786494 0.09114056 -0.03852885 -0.043927006 -0.006026485 -0.04016447 -0.04171747 -0.08589472
0.08801102 -0.09333108 -0.07252585 0.055952437 0.0013237509 0.004330253 -0.0009096108 0.08666516

fc.0.bias f4 [128]
00000000: 5505 cb3a 2ce4 ba3d 6ef0 a9bd 4f03 31bd
00000010: e40c b73d d53d 4f3b 90d9 953b ba2b e7bc
00000020: 4295 dc3c bc54 1cbb 225c 1339 b3fa d63d
00000030: 7c90 f93b 3c5b 80bd 1b5a af3c 6ae8 67bd
00000040: a3f9 093e a433 f23d 3bac 4f3d 5be4 2a3d
00000050: 24c7 a8bd 63f1 b63d 9d9a cc39 a342 82bb
00000060: 144b c63d f858 043e bf0f cd3b 8ecd 53bc
00000070: f389 a7bd 6475 7c3d 5d4a bb3d f6c0 aeb9
00000080: c809 37bd b2e1 59bc f382 f93d b58a 90bc
00000090: 7bda 963d e680 4dbd 1df7 883d 1e7a 183b
000000a0: 9d99 da3d e92f b03d 96df a03c ed7f 863d
000000b0: 17b0 a2bd 1919 e6bb 9b5c 28bd 186c 6fbd
000000c0: 5088 3dba 7dfa b03d 3f1e 563a 0fd5 bc3c
000000d0: b6a1 a63d eced 093e df71 c43b e9de 93bd
000000e0: 30b9 2438 103c bebd cf7c 96bd 38cc cfbc
000000f0: c0ec 023d d7ba 25bd 06a1 a6bc 2154 3fbd
00000100: bb3e 5e3c 1af4 ae3d 2278 223d f1dc bd3d
00000110: 7622 563c 8bce d6ba c3bf 373c 0efa 08bd
00000120: 1ccc 073e ea98 a13d d510 c13d 7db5 013e
00000130: 68ee 5d38 5167 d03d 614b 913c 9b24 903d
00000140: e8e2 893d 22f7 f2bc 5bab 6f3d 758f ec3d
00000150: 003a 683d 7ff9 27bc edd6 41bd 9789 aa3d
00000160: c83e c8bc 376d c93d c6cc f1b8 7b49 963b
00000170: c45a d33d 96d2 a9bd 780b 1bbd 9a14 633d
00000180: e0d9 04bd 831c fa3c 9d0b e6bc 63aa 8dbc
00000190: 4072 01be 1759 d53d bef2 843c a01c a23d
000001a0: a142 19bc 043a ac3b d99f 7a3c 8ad2 803c
000001b0: c03b 4cbd a430 0a3c 8883 66bd 0c9b 013e
000001c0: 3e13 0bbd c013 2c37 e440 b23d 2152 dabd
000001d0: ba12 5c39 a834 b43c 23d4 063e f93a a23d
000001e0: 5235 f43a abf2 f13b ca17 b33b 6487 613d
000001f0: 0a7e 94bd 0f00 4f3d 3ce6 6c3d a932 39bc
0.001548926 0.091255516 -0.082978114 -0.043216046 0.089380056 0.0031622548 0.0045730546 -0.028219093
0.02692664 -0.0023854217 0.00014053335 0.10497036 0.007616101 -0.062674016 0.02140527 -0.05661813
0.13474135 0.11826256 0.05070136 0.041721683 -0.08241108 0.089327596 0.00039025108 -0.003975229
0.09682289 0.12924564 0.0062579806 -0.012927426 -0.081806086 0.06163539 0.09145043 -0.00033331633
-0.044687063 -0.013298439 0.1218318 -0.017644266 0.073658906 -0.050171755 0.06687758 0.0023266147
0.10673831 0.08602888 0.019637864 0.06567369 -0.07943743 -0.007022035 -0.04110394 -0.058452696
-0.000723009 0.08641527 0.0008167959 0.023050813 0.08136313 0.13469666 0.00599502 -0.07220251
3.9273116e-05 -0.092888 -0.07348024 -0.025365934 0.031964064 -0.040461387 -0.020340454 -0.04671109
0.013564761 0.085426524 0.03966535 0.09270657 0.01306974 -0.0016388459 0.011215153 -0.033441596
0.13261455 0.07890494 0.094270386 0.12666889 5.291254e-05 0.10175956 0.017736139 0.07038232
0.06732732 -0.029658858 0.058513027 0.115508 0.056695938 -0.010252356 -0.04732411 0.083270244
-0.024443999 0.09835284 -0.000115299175 0.0045863963 0.103200465 -0.08292119 -0.037852734 0.05543957
-0.032434344 0.030531174 -0.02808171 -0.01729316 -0.12641239 0.10417383 0.01622903 0.07915616
-0.0093542645 0.0052559394 0.0152969 0.015725393 -0.04986167 0.008434448 -0.05627778 0.12656802
-0.033953898 1.0256597e-05 0.08703783 -0.10660196 0.00020987811 0.021997765 0.13166861 0.079214044
0.0018631613 0.0073836646 0.0054654824 0.05506076 -0.072506025 0.050537165 0.057836756 -0.011303582

fc.2.weight f4 [32, 128]
00000000: d517 0ebd cc00 bdbd b95e d03c 8075 883d
00000010: 4939 e5ba 13c0 31bd 4a86 da3d 6425 3a3d
00000020: 09ec cbbc 8642 b13d 6ce9 05bc 9bc9 f53d
00000030: 2e20 ce3d 37fb 9b3d d7d1 a43d 7e87 983d
00000040: 3e6c 6ebd fc54 85bc 5d3e 4abd ed0b f8bc
00000050: 4219 8f3c d77d e03d 7963 edbb 4301 75bd
00000060: 1293 533d 0d60 d13d 7ed0 8ebc 15ec e03c
00000070: 5baf 333c 3d1e 9fbd d737 f4bb 8271 b2bb
00000080: a5e4 b8bd 9655 f2bc 4ac3 dd3d 6bee b93d
00000090: 7e6f ce3d 5d8b bfbc d50a 4dbd ea7a 99bd
000000a0: 5e8c 50bd e245 62ba c6d6 d13d 9f29 cabd
000000b0: c4e5 423d 596c b63b 2f05 1bbd d2d6 0dbe
000000c0: 79d9 983d 8e7f e9bc e2fa a2bc e6b8 483d
000000d0: 68fb 64bd 45a8 b3bd 496e a33d 668f 203b
000000e0: 4b92 b0bd 3753 61bd 31bf 903d c2c1 493d
000000f0: 5b74 67bb 78d4 d7bd f8ce cf3c 6a5e 9b3c
00000100: 1726 853d 0ca1 85bc 266f 92bc 17a0 af3d
00000110: 311d 683d 68c0 6d3d c81c 963d 123f 263d
00000120: ac91 77bd 79cd 41bd d6af 9ebd e0cf 35bd
00000130: ff4e 983c 3163 5cbd 266a 9fbd d01b 0c3e
00000140: 81e2 933d 6076 a13c f4e1 a63c 2bcf da3c
00000150: 85f6 3a3d 787a d4bd 8ca3 d6bb aada 29bd
00000160: e032 da3d 2325 3ebc 1cdc b83d 52d3 e7bc
00000170: 764e bbbd 10d7 95bd e260 42bd 0f8b 7dbd
00000180: ff64 77bd ba4a 48bd 7f8c b03c c799 e0bd
00000190: 1431 943c be65 c13d e3a6 9bbd 3024 a0bd
000001a0: 8595 a93d 8709 52bc fc72 15bd afe5 b83d
000001b0: 36e2 2cbd 7110 25bd d53c 23bd 75c7 f33d
000001c0: f746 bcba 79a2 a4bd b33b bf3d 854d 973d
000001d0: 5d03 b53d f2aa fb3d 3093 79bd e795 8dbd
000001e0: 2065 1abc e4ed 01bd 2b34 64bd d007 4e3d
000001f0: bde9 33bd 8bab 1fbd 1e11 11bc 0516 50bd
00000200: cb18 5bbd d94c c73c 3ada a13d d311 2cbd
00000210: 6003 023e 62d7 143b 31f8 e2bd f5da 3b3d
00000220: 4af9 6fbd 69eb bf3c d9a4 00bc a27c 933d
00000230: 2a20 ebbd c743 5bbd 6bdc 02be 8975 a5bd
00000240: b1cf 7cbd a0c1 4cbd 5849 56bd af78 dfbd
00000250: e0c8 55bd 88b2 a7bd 3ff8 913d 20f9 b0bc
00000260: c2b1 023e a91a 1d3d d149 4b3d b4b2 a0bd
00000270: 292d 7cbd 003c af3c f246 9a3d 12e2 74bd
00000280: db72 66bd 0b6c 0cbd 4b52 c7bd 2068 733d
00000290: fb59 64bd ebee 293a 5e4d eb3d 48c2 14bd
000002a0: 7bb0 b23d f8a7 e23c 67fe a9bc ce38 d83d
000002b0: 8742 b03d 0796 803d fbe5 633d 20ae c63c
000002c0: 1a53 9c3d a2d9 a9bd bb2b 713d 8848 9a3d
000002d0: 9c7f 9cbb fc3a 723c 160a 1fbc 8c72 b03d
000002e0: 9a77 b6bd ccb0 e43d 5f1e 6d3d c402 6a3b
000002f0: 2065 e1bb 586c 86bc e5bb babd 0371 f0bd
00000300: b76d cbbd 8b32 893c 297a bebd ef68 b03d
00000310: 7f02 c5bd 48e8 4e3d aa43 ac3d 317d 90bc
00000320: d96f 1b3d 0fb4 ce3c 7a44 eabc 5c09 1d3d
00000330: 9d42 03bd 4ba6 e33d c82f 98bd 07e0 cb3c
00000340: 3f25 cf3d 1e93 ccbc 9f83 b4bd 86a6 eebb
00000350: 708a 9d3d 5387 643d 124a abbd c5b2 b3bd
00000360: c1d3 2cbd e089 f5bd 86a9 74bd c5c2 f9ba
00000370: 6850 cf3d d7a1 8abd 0f3c 64bd 139d 27bd
00000380: 217b 9dbd 8839 67bc d58c 963d a2a5 7ebc
00000390: be42 a7bd f8f8 8abd 2547 9ebc fd6a 51bd
000003a0: 687a 67bd 6de8 b13d db95 c73c 4b80 213d
000003b0: e807 36bc 85cf 8cbd 2724 263c 459b 043e
000003c0: ae88 a1bc 2b98 8c3d 773e 743d b686 423d
000003d0: 7d2d bfbd 4bd1 14bd c5b3 893d 0074 52bd
000003e0: 17c5 b5bd 919c 8ebd b424 993d b2e4 4abd
000003f0: 21a1 35bd 1a56 833d e635 a9bd 948d 293b
-0.034690697 -0.092286676 0.025435792 0.06663036 -0.0017488386 -0.043396067 0.10670145 0.045445815
-0.024892824 0.086552665 -0.008173328 0.12001344 0.100647315 0.07616275 0.08047836 0.07447718
-0.058208697 -0.016275875 -0.04937588 -0.030279124 0.017468099 0.10961502 -0.007244524 -0.059815656
0.05165393 0.10223398 -0.017433401 0.027456323 0.010967101 -0.07769439 -0.0074529457 -0.00544566
-0.090279855 -0.029581826 0.10828264 0.09078678 0.10079859 -0.023381883 -0.05005916 -0.07494147
-0.050915115 -0.0008631629 0.10246043 -0.0987122 0.047582403 0.0055671153 -0.03784674 -0.13851479
0.074633546 -0.028503206 -0.01989502 0.049004458 -0.055903822 -0.08772329 0.079800196 0.0024499535
-0.08621653 -0.055011 0.07067717 0.049257047 -0.0035317156 -0.10538572 0.025367245 0.018965919
0.06501406 -0.016312145 -0.017875265 0.085754566 0.056668464 0.05804482 0.07329708 0.040587492
-0.060441658 -0.047315095 -0.07748382 -0.0443877 0.018592356 -0.053805534 -0.07783918 0.13682485
0.072209366 0.019709766 0.020371415 0.026710114 0.045645256 -0.103749216 -0.006550258 -0.0414683
0.10654235 -0.011605534 0.090263575 -0.028299008 -0.091458246 -0.073164105 -0.047455676 -0.061900195
-0.06039905 -0.04889939 0.021551369 -0.10966831 0.018089809 0.09443234 -0.076001905 -0.07819402
0.08280472 -0.012819654 -0.03648661 0.09028184 -0.04220792 -0.040298883 -0.039852936 0.11903278
-0.0014364411 -0.08038802 0.093375586 0.073878326 0.08838532 0.122884646 -0.060931385 -0.06913357
-0.009423524 -0.03172101 -0.055713814 0.05030042 -0.043924082 -0.038981955 -0.008854179 -0.05080225
-0.05349044 0.024328636 0.079029515 -0.042009186 0.126966 0.0022711386 -0.11082495 0.04586311
-0.05858735 0.023427682 -0.007851803 0.07201506 -0.11480744 -0.053531434 -0.12779395 -0.08079059
-0.061721507 -0.049989343 -0.05231604 -0.109116904 -0.052193522 -0.08188349 0.07127427 -0.021603167
0.12763122 0.038355503 0.049630944 -0.07846585 -0.061566506 0.021390915 0.07533063 -0.05978591
-0.05626188 -0.034282725 -0.09732493 0.059425473 -0.055749875 0.000648244 0.11489366 -0.036318094
0.08725067 0.027667984 -0.020751191 0.1055771 0.08606439 0.062786154 0.05563925 0.024252951
0.07633038 -0.08293463 0.058879595 0.075333655 -0.0047759544 0.014784571 -0.0097069945 0.08615598
-0.08909531 0.11166534 0.057890292 0.0035707215 -0.00687851 -0.016409084 -0.09117869 -0.11740305
-0.09933036 0.016747734 -0.09300644 0.086137645 -0.09619617 0.05051449 0.084113434 -0.01763782
0.037948463 0.025232343 -0.028597105 0.038339004 -0.03204595 0.11115702 -0.074309886 0.024887098
0.10114526 -0.024972495 -0.08814167 -0.0072830347 0.076924205 0.055793118 -0.08363737 -0.08774332
-0.04219413 -0.11989188 -0.059731983 -0.0019055238 0.10122758 -0.0676915 -0.05572134 -0.040921282
-0.076895006 -0.014112838 0.0735108 -0.01554242 -0.08167027 -0.06785768 -0.019321034 -0.051127423
-0.05651322 0.0868691 0.024363449 0.03942899 -0.011110283 -0.06875519 0.010140455 0.12949856
-0.019718494 0.06864961 0.059629884 0.04749175 -0.09334848 -0.03633241 0.067237414 -0.051380157
-0.088754825 -0.069634564 0.07477704 -0.049534507 -0.044343118 0.06412907 -0.082622334 0.002587174

fc.2.bias f4 [32]
00000000: f696 473d 90bd b33c 83ea 4fbd b6e4 1e3d
00000010: d453 52bd 0ee3 523d b841 f03c 22d4 113d
00000020: 4092 aabd 3c5a 96bd 8266 e7bc c8a3 9bbd
00000030: 8cd9 97bc 1bc6 43bd c0ed 473c 2059 e63c
00000040: 9849 90bc e672 4bbd cc14 83bc e00b 2abc
00000050: c0a4 4fbb 6551 61bd ff8a 8d3d 80aa 9cbc
00000060: ce5c 95bd f0ce 733c d80f 9b3c 2e59 793d
00000070: 80dc babc 0973 913d a0c3 b23b 10d7 d23b
0.048727952 0.021940976 -0.050760757 0.038792334 -0.051349476 0.051486067 0.029328212 0.035602696
-0.08328676 -0.073414296 -0.028247122 -0.07599598 -0.018536352 -0.04779635 0.01220268 0.02811867
-0.017613217 -0.049670123 -0.016001128 -0.010378808 -0.0031683892 -0.055009264 0.06911277 -0.01912427
-0.07293092 0.014880881 0.018928453 0.060876064 -0.02281022 0.07102019 0.005455449 0.006434329
