models/params/song_embedding_cosine_small.pth (torch, 70464 bytes, 4 tensors)

fc.0.weight f4 [128, 100]
0	0xbd75638c	-0.05990939
1	0xbd9d2fbb	-0.076751195
2	0x3ddcb278	0.10776228
3	0xbdb94628	-0.09046584
4	0x3dc6b5a6	0.097026154
5	0x3d394a82	0.04523707
6	0x3dcfecb6	0.10152571
7	0x3dbd9ae0	0.09258056
8	0xbd882fd2	-0.06649746
9	0x3d165a62	0.03670729
10	0x3db2155a	0.08695479
11	0x3d0bda9f	0.03414404
12	0x3dab9498	0.083779514
13	0xbbe2294f	-0.006901897
14	0xbd454eb0	-0.048170745
15	0xbc8ddeeb	-0.01731821
16	0x3da98955	0.08278147
17	0x3ca4b202	0.020104412
18	0x3d2e96f9	0.042624447
19	0x3db06abb	0.08614107
20	0x3dbfedf1	0.093715556
21	0xbd12f804	-0.035881057
22	0xbd9c57b3	-0.07633915
23	0x3dd40661	0.10352779
24	0x3d296800	0.041358948
25	0xbcefd85f	-0.029277978
26	0xbd044ef1	-0.032301847
27	0x3a6e89c2	0.0009099507
28	0x3c3fb1aa	0.011700073
29	0x3daf69f3	0.0856513
30	0xbd6580d0	-0.05603105
31	0x3c8c91b6	0.017159324
32	0x3d56acd5	0.05241092
33	0x3d4154a6	0.047199868
34	0x3c8230f1	0.015892478
35	0x3c646ba8	0.013941683
36	0xbd9d7e81	-0.07690144
37	0x3d88b3a2	0.06674887
38	0x3da5b477	0.080910616
39	0xbce1ed6c	-0.027579032
40	0xbd4294ad	-0.04750507
41	0x3cdea405	0.02717782
42	0xbd09fb42	-0.033686884
43	0x3b9b2216	0.004734288
44	0x3db9631b	0.09052106
45	0xbdc5a582	-0.09650709
46	0xbdabf184	-0.08395675
47	0xbb86e737	-0.0041169184
48	0xbdc6021d	-0.09668372
49	0x3d0e5f6e	0.034758978
50	0x3c9d4aec	0.019200765
51	0x3d86e512	0.065866604
52	0xbc0ecac4	-0.008715335
53	0x3da79c59	0.08184118
54	0x3c184ed3	0.009296137
55	0x3d8d4352	0.06897606
56	0x3d6a2d77	0.057172265
57	0x3d731e32	0.05935497
58	0xbd77b09f	-0.060471173
59	0x3c24ff0d	0.0100705745
60	0x3b93d164	0.0045110453
61	0xbd7b7d5e	-0.061398856
62	0xbd945284	-0.07242301
63	0x3d1cf17e	0.038316242
64	0xbdd0aeef	-0.10189616
65	0xbda563d0	-0.08075678
66	0xbd9dbcba	-0.07702012
67	0x3ceb98eb	0.02875944
68	0xbd77efc8	-0.060531408
69	0x3d8dd3b8	0.06925148
70	0x3d8ced07	0.06881147
71	0xbb6a6c4e	-0.003577012
72	0x3d8ddf0c	0.069273084
73	0xbd09ac01	-0.0336113
74	0x3d413159	0.047166202
75	0x3a751263	0.0009348748
76	0xbd822ec1	-0.06356574
77	0xbc5dc6e8	-0.0135361925
78	0xbd0d2d8a	-0.034467258
79	0xbd6cc8dd	-0.057808746
80	0x3ca2b6de	0.019862588
81	0xbcf092ee	-0.029366937
82	0x3c0a9539	0.008458429
83	0x3d964416	0.07337205
84	0xbdad33bd	-0.08457134
85	0x3da9d8cd	0.082933046
86	0x3d00b7c2	0.031425245
87	0x3d90a816	0.0706331
88	0x3cea3893	0.02859143
89	0x3c1f9ad0	0.0097415
90	0xbc952457	-0.018205805
91	0xbd504839	-0.050850127
92	0xbd499903	-0.04921819
93	0x3c1a1527	0.009404457
94	0x3d1d491f	0.03839981
95	0x3c2ddaa5	0.010611211
96	0xbcdce9d5	-0.026966969
97	0xbdae2a93	-0.08504214
98	0x3d227caa	0.03966967
99	0xbceb74bc	-0.028742187
100	0x3dd120ca	0.10211332
101	0x3d05448a	0.032536067
102	0x3d3ed4dc	0.046589717
103	0xbdde3162	-0.10849263
104	0x3d82ab32	0.06380309
105	0xbd172cc5	-0.03690793
106	0x3dcd36ee	0.10020243
107	0x3bf1a084	0.0073738713
108	0xbdad5d8c	-0.08465108
109	0x3ceb7cdb	0.02874606
110	0x3d1ed7ba	0.03877995
111	0x3d800bfc	0.06252286
112	0x3dc9c7fb	0.09852596
113	0x3c845141	0.016152026
114	0xbdc82fb6	-0.09774725
115	0x3d918cc0	0.07106924
116	0x3d064b0c	0.032786414
117	0x3b553d6e	0.0032537836
118	0xbd79bad0	-0.060969174
119	0x3c955f90	0.018234044
120	0xbc6541b7	-0.013992718
121	0xbdb363db	-0.0875928
122	0x3c9314f2	0.017954323
123	0xbd8dd66c	-0.06925663
124	0x3d968c3d	0.07350967
125	0x3c116a83	0.008875492
126	0xbc75e739	-0.015008741
127	0x3d91cf3f	0.07119607
128	0x3c8e129f	0.017342864
129	0x3c90216e	0.017594066
130	0x3dce1bc0	0.10063887
131	0x3d6b76cc	0.05748634
132	0x3d8855f6	0.06657021
133	0x3d4686d7	0.048468437
134	0x3d1c109a	0.03810177
135	0xbdd57414	-0.10422531
136	0xbd80cad6	-0.06288688
137	0xbd5f7bc3	-0.054561388
138	0xbce1c09b	-0.027557662
139	0xbdb13158	-0.0865199
140	0xbd0ecfb4	-0.03486605
141	0xbdb0ae72	-0.08627023
142	0x3d5c06d6	0.053717457
143	0xbd43ace8	-0.047772318
144	0xbc15350a	-0.009106884
145	0xbc3e3f72	-0.011611806
146	0x3da4d42c	0.08048281
147	0xbc082d9a	-0.0083116535
148	0xbd06c5bb	-0.032903414
149	0xbcab0bd3	-0.020879662
150	0xbd0c346a	-0.034229673
151	0xbd91bdb4	-0.07116261
152	0xbd82bda7	-0.063838296
153	0xbd138eec	-0.036024973
154	0xbd3776ec	-0.044791147
155	0xbdbda6df	-0.09260344
156	0x3d8df29c	0.0693104
157	0x3cdec9a1	0.027195754
158	0x3d7470a0	0.05967772
159	0x3d9d4bea	0.07680495
160	0xbd4263fb	-0.04745863
161	0x3dc8aef4	0.09798995
162	0xbc8376e2	-0.016047899
163	0x3d25f5aa	0.040517487
164	0x3d6e2d63	0.058148753
165	0xbdaaedf5	-0.08346168
166	0x3d423d50	0.047421753
167	0xbc9e7953	-0.019344961
168	0xbdb0d1c0	-0.08633757
169	0xbc0be8ee	-0.0085394215
170	0xbce52771	-0.027972909
171	0x3d1bd50a	0.038044967
172	0x3da57506	0.08078961
173	0xbd01ee95	-0.03172167
174	0xbdadd6e8	-0.08488256
175	0xba6e65eb	-0.00090941665
176	0x3db7046e	0.08936392
177	0xbd3781d1	-0.044801537
178	0xbcbdc535	-0.023165325
179	0xbdc1e937	-0.0946831
180	0x3ce63929	0.028103428
181	0xbccd2167	-0.025040342
182	0x3d86ce9a	0.06582375
183	0xbd72aef1	-0.05924887
184	0xbc7a914c	-0.015293431
185	0xbbd87bf1	-0.006606572
186	0x3dbb679f	0.091506235
187	0x3bc1ff55	0.0059203305
188	0xbdb47d5a	-0.088129714
189	0x3d0e2a6e	0.034708433
190	0xbd6fd435	-0.058551986
191	0xbce76190	-0.028244764
192	0xbd917dce	-0.071040735
193	0x3d90ba03	0.07066729
194	0xbd3d1b1b	-0.046168428
195	0xbd907f78	-0.07055563
196	0xbd885a6e	-0.06657873
197	0x3d8ef255	0.06979815
198	0xbdab86ad	-0.08375297
199	0x3cc34e80	0.023841143
200	0xbc96e371	-0.018419
201	0xbce54954	-0.027989067
202	0xbd8b5f3c	-0.06805274
203	0xbdb7f63a	-0.08982511
204	0xbd0b863e	-0.03406357
205	0xbd3f8b1c	-0.046763524
206	0xbd87a104	-0.06622508
207	0x3da79c93	0.08184161
208	0xbd05dd30	-0.032681644
209	0xbc85e498	-0.016344354
210	0xbd587c31	-0.052852813
211	0xbdc275b7	-0.094951086
212	0xbd6a3d61	-0.05718744
213	0xbd96a836	-0.073563024
214	0x3d721e09	0.059110675
215	0x3d95f1e8	0.073215306
216	0x3de020bf	0.10943746
217	0xbd682253	-0.05667336
218	0xbc1e1aaf	-0.009649917
219	0x3dde3eba	0.10851808
220	0xbc32db86	-0.010916596
221	0x3dcf6c17	0.101280384
222	0xbb8db2ec	-0.0043243077
223	0xbd5e93da	-0.05434022
224	0xbca25578	-0.019816145
225	0x3d8fbb37	0.0701813
226	0xbd003521	-0.031300668
227	0x3d64eb7f	0.05588865
228	0x3cf0e4f5	0.02940605
229	0x3d003378	0.031299084
230	0xbc9cf6fc	-0.01916074
231	0xbce52eae	-0.02797636
232	0xbd81a2e5	-0.06329898
233	0xbd86087e	-0.065445885
234	0xbd3fd686	-0.046835445
235	0x3d3761ae	0.04477089
236	0x3c57cc5f	0.013171284
237	0xb8bcfec8	-9.011995e-05
238	0xbd8d91c6	-0.0691257
239	0x392ab502	0.00016279894
240	0xbd9107e7	-0.070815854
241	0xbdc0d09e	-0.094147906
242	0x3d371f5a	0.044707634
243	0x3c1f52d8	0.009724341
244	0x3c26e700	0.010186911
245	0xbdc01603	-0.093791984
246	0x3cf680db	0.03009074
247	0x3d50e411	0.05099875
248	0xbafc4ba6	-0.0019248619
249	0x3db5b709	0.08872802
250	0x3da00086	0.078126
251	0xbdb948eb	-0.09047111
252	0xbd15ec5a	-0.036602356
253	0xbc9a9b36	-0.018872838
254	0xbd1aed23	-0.037823807
255	0xbda6b278	-0.08139509

fc.0.bias f4 [128]
0	0xbd4aa92f	-0.049477752
1	0xbaeeeb33	-0.0018228054
2	0x3cdad3d8	0.026712343
3	0x3d9d1a16	0.07670991
4	0xbcec02de	-0.028809961
5	0x3d36dcdc	0.04464422
6	0x3d3d3573	0.04619355
7	0x3da9eadf	0.08296751
8	0xbdaa5423	-0.08316829
9	0x3d21731e	0.039416425
10	0x3cf95d54	0.03044001
11	0x3dcf0221	0.10107828
12	0xbd8ce2e6	-0.06879215
13	0xbb57489d	-0.0032849677
14	0x3d314400	0.04327774
15	0x3d81858a	0.06324299
16	0x3d868e9c	0.06570169
17	0xbd7b0d77	-0.061292138
18	0xbd5dac4d	-0.054119397
19	0xbc8d4434	-0.017244436
20	0x3d5d28e3	0.05399407
21	0xbd77b0c5	-0.060471315
22	0xbdac1ddc	-0.08404133
23	0x3c2a3b88	0.01039017
24	0xbd8c86a9	-0.06861622
25	0x3c1f0484	0.009705666
26	0x3dab54c1	0.08365775
27	0x3c64fde3	0.013976547
28	0xbd522aa6	-0.051310204
29	0xbd415c3f	-0.047207113
30	0xbdbec470	-0.09314811
31	0xbdaa0876	-0.08302395
32	0x3db23327	0.08701163
33	0xbc5dc13f	-0.013534843
34	0xbcae33d6	-0.021264952
35	0xbda8887a	-0.08229156
36	0xbd9d8c3f	-0.076927654
37	0xbd0dec43	-0.034649145
38	0x3d68ed3c	0.05686687
39	0xbd911ef7	-0.07085984
40	0xbd1b59c4	-0.037927404
41	0x3d6a9bf2	0.057277627
42	0xbd9dce9b	-0.077054225
43	0x3d3acd99	0.04560623
44	0x3d9aface	0.075673684
45	0x3d8f51ee	0.06998049
46	0xbca0d4e3	-0.019632762
47	0xbbda063f	-0.0066535766
48	0x3d55ffd7	0.05224594
49	0xbd571f8d	-0.052520324
50	0xbc11ed4e	-0.0089066755
51	0xbcae0780	-0.02124381
52	0x3d9b817c	0.075930566
53	0x3b7a605b	0.0038204405
54	0xbd0bb386	-0.034106754
55	0x3cd99a4c	0.026562832
56	0xbcf57acf	-0.029965786
57	0x3d43434c	0.0476716
58	0xbcce41e4	-0.025177903
59	0xbc92bfba	-0.017913688
60	0xbd9e4ba9	-0.07729275
61	0x3cb76d6c	0.022391044
62	0xbc3e6a0e	-0.011621965
63	0xbb3725ff	-0.0027946231
64	0xba6e5374	-0.0009091415
65	0xbbee56cc	-0.0072735306
66	0x3c0b806b	0.008514504
67	0x3ceca204	0.028885849
68	0x3d7139dd	0.058893073
69	0x3cdfa420	0.02729994
70	0x3daa772c	0.083235115
71	0xbccd01b0	-0.025025219
72	0x3d28e05e	0.0412296
73	0xbbf1d98e	-0.007380671
74	0xbddae18d	-0.10687552
75	0x3d7d21be	0.061799757
76	0xbd9de7b2	-0.07710208
77	0xbd14dcfb	-0.036343556
78	0xbd12b616	-0.035818182
79	0x3b36200a	0.0027790093
80	0x3cc5c2e3	0.02414078
81	0x3cff295f	0.031147657
82	0xbcbb467c	-0.022860758
83	0xbdcf144b	-0.101112925
84	0x3d2cc176	0.042176686
85	0xbd1a7b45	-0.037715215
86	0xbd266156	-0.04062017
87	0x3dd6325b	0.10458823
88	0x3d33af96	0.043868624
89	0xbcaef75d	-0.021358186
90	0xbd946bbf	-0.072471134
91	0x3cd8bf74	0.02645848
92	0xbbccf95e	-0.006255313
93	0xbda5b6b8	-0.080914915
94	0xbd5ed060	-0.05439794
95	0xbdc30215	-0.095218815
96	0x3d7046c2	0.05866123
97	0xbd3ca61a	-0.046056844
98	0xbaaef647	-0.0013348543
99	0x3cbd12e5	0.023080299
100	0x3cddafac	0.027061306
101	0x3cb03eb9	0.021514283
102	0xbbb61be5	-0.0055575245
103	0xbd53e928	-0.051736027
104	0xbd4a8ab5	-0.049448688
105	0x3bca4bc0	0.006173581
106	0x3d6602a5	0.056154866
107	0x3da9b532	0.082865134
108	0xbb1899c8	-0.002328502
109	0x3dd74ddf	0.105128996
110	0x3be1b7f0	0.006888382
111	0x3dbcf573	0.09226503
112	0x3d9e6593	0.077342175
113	0xbda73b57	-0.08165615
114	0xbd00eb35	-0.03147431
115	0x3d307842	0.043083437
116	0xbd4da97f	-0.050210472
117	0xbd94c550	-0.07264197
118	0xbd593e68	-0.05303803
119	0x3dd652f0	0.10465038
120	0xbd48dd59	-0.04903922
121	0xbd3f882e	-0.04676073
122	0x3b0ebefc	0.0021781316
123	0x3d4f1913	0.050561022
124	0x3da664eb	0.08124717
125	0x3d22fe74	0.039793447
126	0x3cbe0f7e	0.023200747
127	0x3da3a52c	0.079904884

fc.2.weight f4 [32, 128]
0	0x3d9c7219	0.0763895
1	0xbd46df51	-0.048552815
2	0xbd586cd5	-0.052838165
3	0xbdac3433	-0.08408394
4	0xbd307cc1	-0.043087725
5	0xbd18f2b9	-0.037340853
6	0xbc9bcd73	-0.019018864
7	0xbdc2cac5	-0.095113315
8	0xbca85d5a	-0.020552326
9	0xbda729a6	-0.08162241
10	0xbdc941b6	-0.098269865
11	0xbd9a896a	-0.07545741
12	0x3d9504ef	0.07276332
13	0xbd174476	-0.036930524
14	0xbd9356ce	-0.07194291
15	0xbd662724	-0.05618967
16	0xbd9e3dbc	-0.07726619
17	0xbdc6ce6f	-0.09707343
18	0xbd5e5b45	-0.05428626
19	0x3d8779a9	0.06615002
20	0x3c98ee5d	0.018668348
21	0x3cc2c383	0.023774868
22	0x3d053836	0.03252431
23	0xbd71ebf4	-0.059062913
24	0x3d765ecb	0.060148995
25	0x3cbb13f2	0.02283666
26	0x3d1066ba	0.035254218
27	0xbd8ecee8	-0.06973058
28	0xbd6e8f68	-0.05824223
29	0x3d5f65cc	0.05454044
30	0x3cb8577d	0.022502655
31	0xbc6ff472	-0.014645683
32	0xbd9b632b	-0.07587274
33	0x3d2da82f	0.04239672
34	0xbd29b334	-0.041430667
35	0x3d0156f7	0.031577077
36	0x3d99ac45	0.07503561
37	0xbdb42e28	-0.08797866
38	0x3d656f63	0.05601443
39	0xbce6185a	-0.028087784
40	0xbda0acd8	-0.07845467
41	0xbd6dd639	-0.058065627
42	0xbd917075	-0.071015276
43	0xbd879148	-0.06619507
44	0x3d9a4dfe	0.07534407
45	0xbd402295	-0.04690798
46	0x3d7a1fa3	0.061065327
47	0x3d8e4ae1	0.06947876
48	0xbd810c53	-0.06301179
49	0xbd6a32dc	-0.05717741
50	0xbd3be3fb	-0.045871716
51	0x3bf8cf4a	0.00759307
52	0x3d8959e1	0.06706596
53	0x3c6f46f5	0.01460432
54	0x3d42e2b3	0.04757948
55	0x3d6fd435	0.058551986
56	0x3d7d2f6e	0.06181281
57	0xbca318d5	-0.019909302
58	0x3d534dc7	0.051587846
59	0x3d33c168	0.04388562
60	0x3d7cc9c2	0.06171585
61	0x3c93a5c3	0.018023377
62	0xbd99a70d	-0.075025655
63	0x3d825514	0.063638836
64	0x3d8fd8e1	0.07023788
65	0x3d1c1d05	0.038113613
66	0x3d7b0bce	0.061290555
67	0x3d388ef0	0.04505819
68	0x3d5a67bc	0.053321585
69	0xbd33b105	-0.04386999
70	0x3d03a2c9	0.032137666
71	0xbcdcf0da	-0.026970316
72	0x3d836a0d	0.06416712
73	0xbda2ac44	-0.07943013
74	0xbcb82f55	-0.022483507
75	0x3d155fda	0.036468364
76	0x3cbb17f7	0.022838576
77	0xbd06c765	-0.032905
78	0x3cbaea39	0.022816764
79	0x3c25a080	0.010109067
80	0x3d949247	0.07254463
81	0x3cc275f2	0.023737881
82	0xbd0ffe14	-0.035154417
83	0x3b720b22	0.0036932905
84	0xbd133350	-0.035937607
85	0x3d38fc95	0.045162756
86	0x3d9d296a	0.07673915
87	0xbdbff083	-0.09372046
88	0xbbd937b4	-0.006628955
89	0xb9ee5c6a	-0.0004546375
90	0x3b51a38d	0.0031988353
91	0xbd3a8016	-0.04553231
92	0xbdc666a6	-0.096875474
93	0xbc5ad558	-0.013356529
94	0xbd9a959a	-0.075480655
95	0x3d2417a9	0.040061627
96	0xbd68d0d3	-0.056839775
97	0x3d967847	0.0734716
98	0xbbb685aa	-0.005570133
99	0x3d523f03	0.051329624
100	0xbd9543ce	-0.07288323
101	0xbd676ca1	-0.05650008
102	0x3cef897d	0.029240364
103	0xbdb2a0aa	-0.087220505
104	0xbcd708ea	-0.026249368
105	0xbcfc7c3c	-0.030820958
106	0xbd835b1a	-0.064138606
107	0xbda51271	-0.08060158
108	0x3d684326	0.056704663
109	0x3d64c13b	0.05584834
110	0xbd96ef4d	-0.07369862
111	0xbdc1e688	-0.094677985
112	0xbda7f839	-0.082016416
113	0x3d90c2fc	0.0706844
114	0xbdaaa7fe	-0.08332823
115	0x3d4f010b	0.050538104
116	0xbd069021	-0.032852296
117	0xbb621d38	-0.003450228
118	0x3caa9c5c	0.020826511
119	0x3d29a481	0.04141665
120	0xbd95be2c	-0.07311663
121	0xbd0e5d00	-0.03475666
122	0xbc4bccc8	-0.01243896
123	0xba00f80c	-0.00049197744
124	0x3cd4fda8	0.025999859
125	0x3d97508a	0.073884085
126	0xbd2988bd	-0.04139017
127	0xbceb2acd	-0.028706932
128	0x3d53b611	0.051687304
129	0x3d81ecf5	0.06344024
130	0x3d4b63e1	0.0496558
131	0x3d8ac595	0.06775967
132	0xbd75aee4	-0.05998124
133	0x3d519089	0.05116323
134	0x3d8804e9	0.066415615
135	0xbc67a4d2	-0.014138417
136	0xbd2f7273	-0.042833757
137	0xbc707094	-0.014675278
138	0x3dacf927	0.084459595
139	0xbc75d05f	-0.015003293
140	0xbcb67196	-0.022270959
141	0x3c5770f6	0.013149491
142	0x3d9099dd	0.07060597
143	0xbd9ddc43	-0.07708027
144	0x3da327e4	0.07966593
145	0x3d2fe34e	0.042941384
146	0xbcfd639a	-0.030931283
147	0x3d4370aa	0.047714867
148	0x3c057a4f	0.008146836
149	0xbd69a3be	-0.057040922
150	0x3cacd234	0.021096326
151	0xbcc5262e	-0.024066057
152	0x3d8d13af	0.0688852
153	0x3d40dd51	0.047086064
154	0x3cda81eb	0.026673278
155	0xbd822c9a	-0.06356163
156	0x3d434c91	0.04768044
157	0x3d337c00	0.043819427
158	0x3befc3b3	0.0073170303
159	0x3dc061fe	0.093936905
160	0xbc82ed2a	-0.01598223
161	0xbb89bb5e	-0.004203244
162	0x3d8741d3	0.06604352
163	0xbcf9f04e	-0.030510094
164	0xbcf3e14f	-0.029770521
165	0xbd843e02	-0.064571396
166	0xbbb84362	-0.005623267
167	0x3d6bb235	0.057543
168	0x3c6d6529	0.0144894505
169	0xbc9532d0	-0.018212706
170	0x3d6add60	0.057340026
171	0x3d4e1e6e	0.05032199
172	0xbd6bd630	-0.057577312
173	0x3cb25ba4	0.021772213
174	0xbd9419a9	-0.07231457
175	0xbc89750c	-0.016779445
176	0x3d0352c5	0.032061357
177	0x3da3737a	0.0798101
178	0xbc8e50c7	-0.017372502
179	0x3cce4682	0.025180105
180	0x3c4afbd9	0.012389147
181	0x3dad834f	0.08472311
182	0x3db2e12d	0.08734355
183	0xbd6816cb	-0.056662362
184	0x3c566a83	0.013086918
185	0xbd77a46c	-0.06045954
186	0x3d649575	0.055806596
187	0x3d36fefe	0.044676773
188	0x3cd99544	0.026560433
189	0xbd81f8bc	-0.063462704
190	0x3bc79ef6	0.0060919477
191	0xbd89cdca	-0.06728704
192	0xbcd4aed7	-0.025962276
193	0x3dc6d7a0	0.09709096
194	0xbd6923f1	-0.056919042
195	0xbd5f328b	-0.05449156
196	0xbcbd9c08	-0.02314569
197	0xbd1cd65d	-0.03829037
198	0xbd189b99	-0.037257764
199	0xbc4c16ed	-0.012456638
200	0xbd88af9f	-0.06674122
201	0xbd1e20fa	-0.038605668
202	0x3db70c1d	0.08937857
203	0x3d1d044a	0.03833417
204	0xbd9ad6a0	-0.07560468
205	0x3b244c21	0.002506979
206	0x3ce0b445	0.02742971
207	0x3d6c688e	0.0577169
208	0xbd9af01b	-0.07565328
209	0x3ca37c4d	0.019956732
210	0x3d0d7bda	0.034541942
211	0xbbdef207	-0.0068037543
212	0x3d2f0276	0.042726956
213	0xbd197173	-0.03746171
214	0x3db54d66	0.08852653
215	0x3dc04924	0.093889505
216	0xbd2c2003	-0.042022716
217	0xbc9d8cc9	-0.01923217
218	0xbcba931d	-0.022775227
219	0x3c98c0b7	0.018646581
220	0xba5d5605	-0.0008443299
221	0x3c13bce9	0.009017208
222	0x3d441ec4	0.047880903
223	0x3d2d4de3	0.042310607
224	0x3d58ca15	0.052927095
225	0xbd8db896	-0.069199726
226	0x3d7ca7d9	0.06168351
227	0xbd2d89a4	-0.042367592
228	0x3d5cbc47	0.053890493
229	0xbd29d0f5	-0.041459043
230	0x3dc180ce	0.09448396
231	0xbda3865d	-0.07984612
232	0xbb522751	-0.0032066891
233	0xbd7432c0	-0.05961871
234	0x3d393305	0.04521467
235	0x3da0c3f5	0.07849876
236	0x3dbc9c83	0.0920954
237	0x3bc649b0	0.0060512647
238	0x3c2abf6b	0.010421614
239	0xbd5668e5	-0.05234613
240	0xbd882db9	-0.06649346
241	0x3d2027f8	0.039100617
242	0xbadab80e	-0.0016686933
243	0x3dc113b9	0.0942759
244	0xbd5252c6	-0.05134847
245	0xbd54a2f0	-0.0519132
246	0x3dbf2c9e	0.09334682
247	0xbd5e5379	-0.054278824
248	0x3da9d406	0.082923934
249	0xbcb15ef3	-0.02165172
250	0x3cbdd377	0.023172123
251	0xbcb0c595	-0.02157859
252	0x3d5b98bb	0.053612452
253	0xbd8e96af	-0.06962334
254	0x3dc2aa61	0.095051534
255	0x3c1203a0	0.008911997

fc.2.bias f4 [32]
0	0x3d91cc38	0.0711903
1	0xbc4a60b9	-0.012352162
2	0xbb836765	-0.0040101283
3	0x3d03fb4f	0.03222209
4	0xbcb8a62e	-0.022540178
5	0x3b8c44e2	0.0042806724
6	0x3d08e972	0.033425756
7	0x3c612a93	0.013743061
8	0xbc09262a	-0.008370915
9	0xbcb9a897	-0.022663398
10	0x3c2025c5	0.00977463
11	0xbc63deee	-0.013908131
12	0x3d98a728	0.074537575
13	0x3d1a8d4a	0.0377324
14	0x3d4d2a64	0.050089255
15	0x3c41c197	0.011825941
16	0x3d129ee5	0.035796065
17	0x3ca79bf3	0.020460105
18	0x3d64a9c2	0.055825956
19	0x3d7d253a	0.06180308
20	0xbd359dc6	-0.044339918
21	0xbd4b68c0	-0.049660444
22	0x3c8a0bfd	0.01685142
23	0xbd0be99e	-0.03415834
24	0x3d7672c0	0.060168028
25	0xbd3c96e1	-0.046042327
26	0xbb53ab6f	-0.0032298227
27	0xbc537f54	-0.012908775
28	0xbc842067	-0.016128732
29	0xbcaa0cb0	-0.020758003
30	0x3d908936	0.07057421
31	0x3d1573bc	0.036487326
