models/params/song_embedding_euclidean.pth (torch, 70552 bytes, 4 tensors)

fc.0.weight f4 [128, 100]
0	0xbdb1839f	-0.08667683
1	0xbe0e349a	-0.13887253
2	0xbd8872aa	-0.066624954
3	0xbd8ac8f0	-0.06776607
4	0xbca714a6	-0.020395588
5	0x3a01c8ce	0.00049508817
6	0xbd0011ce	-0.03126698
7	0x3d0b13b9	0.033954356
8	0xbd0b78c5	-0.03405072
9	0xbdc059e7	-0.093921475
10	0x3d3b6dea	0.04575912
11	0x3d261d7a	0.040555455
12	0xbd224fde	-0.03962695
13	0x3ae6fdd2	0.0017623252
14	0xbc7c700c	-0.015407573
15	0xbde0c84d	-0.10975704
16	0x3cbd627f	0.023118256
17	0x3d9a69eb	0.075397335
18	0xbcfb425e	-0.030671295
19	0xbd84303d	-0.06454513
20	0x3e1b0b79	0.15141095
21	0xbd924868	-0.07142717
22	0x3bb3f317	0.005491625
23	0x3e06980b	0.13143937
24	0x3c03aea2	0.008037241
25	0xbab7c695	-0.0014020974
26	0xbdcca13c	-0.099916905
27	0xbdb54ebd	-0.08852909
28	0x3c84bfd9	0.016204761
29	0xbda49d72	-0.08037843
30	0x3d2b1860	0.041771293
31	0x3dd1bcd8	0.10241097
32	0x3d869329	0.06571037
33	0xbd008b03	-0.031382572
34	0x3da5b029	0.080902405
35	0xbd15eeab	-0.036604565
36	0x3c35efbb	0.0111045195
37	0x3de0656b	0.10956844
38	0xbd7cca8e	-0.06171661
39	0x3da179e4	0.07884577
40	0x3d85a748	0.06526047
41	0xbc86b8f3	-0.016445613
42	0x3d230c37	0.03980657
43	0x3db49b5b	0.08818694
44	0x3d77ae49	0.060468946
45	0xbd6720d7	-0.056427803
46	0xbcd1ec26	-0.0256253
47	0xbd595005	-0.05305483
48	0x3e0946c9	0.13405909
49	0x3ccdd139	0.02512418
50	0x3d6117e7	0.054954436
51	0xbd8e7e9f	-0.06957745
52	0x3d9d1c6e	0.07671438
53	0xbd33b29b	-0.043871503
54	0x3dc2ef1d	0.095182635
55	0x3d234e48	0.039869577
56	0xbd7064da	-0.05868993
57	0xbdbbdd79	-0.09173102
58	0x3dc72e4a	0.09725626
59	0xbdb25550	-0.08707678
60	0x3d9b6a0d	0.07588587
61	0xbdc03ba0	-0.093863726
62	0xbd894ff9	-0.06704707
63	0x3dd67e47	0.10473304
64	0x3cb6f627	0.022334171
65	0x3ddf9afc	0.10918233
66	0xbdda93ea	-0.106727436
67	0xbdab4df3	-0.08364477
68	0x3c41c4e4	0.011826728
69	0xbbb4525f	-0.0055029835
70	0x3d48edda	0.049054958
71	0x3dc5ae19	0.09652347
72	0xbd2438e7	-0.04009333
73	0xbc2bc890	-0.01048483
74	0xbd02b2c4	-0.031908765
75	0x3decad02	0.11556436
76	0x3da592ee	0.08084665
77	0xbdb675bb	-0.08909174
78	0xbd566898	-0.052345842
79	0xbdad1a0a	-0.08452232
80	0xbdf6a8da	-0.12043925
81	0x3de6874c	0.112562746
82	0x3dfd01df	0.123538725
83	0x3cb2adce	0.021811392
84	0xbd2977d4	-0.041374043
85	0xbd49cc7c	-0.049267277
86	0xbd813928	-0.0630973
87	0x3d4cd056	0.050003372
88	0xbd57575f	-0.052573558
89	0x3df459c1	0.11931182
90	0xbdac9bba	-0.0842814
91	0x3dea960b	0.114544
92	0x3d23f040	0.040024042
93	0x3d734386	0.059390567
94	0x3df95284	0.12173942
95	0xbd9ba8bd	-0.07600544
96	0x3d574fa1	0.052566174
97	0xbc93641b	-0.01799207
98	0x3c206eff	0.0097920885
99	0xbd631c60	-0.055446982
100	0xbcbbb89f	-0.022915183
101	0xbde71617	-0.1128351
102	0xbd4dcfa6	-0.050246857
103	0x3d8c3aaa	0.06847127
104	0x3d8dfdc8	0.069331706
105	0xbe05cae5	-0.1306568
106	0x3d9198c8	0.07109219
107	0xbdd1562e	-0.102215156
108	0xbdd22a50	-0.10261977
109	0x3d9fbc2b	0.07799562
110	0xbd1af0d1	-0.037827317
111	0x3db034d2	0.08603825
112	0x3d6f4db4	0.058423713
113	0x3cd2e2d5	0.025742928
114	0xbd20bb85	-0.039241333
115	0xbd9aadbf	-0.07552671
116	0x3e0b3a07	0.13596354
117	0xbd98dfbf	-0.07464551
118	0xbd80cdee	-0.06289278
119	0x3c9545ec	0.018221818
120	0xbcd2092a	-0.025639135
121	0xbd168e79	-0.036756966
122	0x3d8ef56f	0.069804065
123	0xbd7ea793	-0.06217153
124	0x3e0a3193	0.13495474
125	0xbcf65571	-0.030070039
126	0x3c8812db	0.016610553
127	0xbdf5c474	-0.12000361
128	0xbdbf1fb4	-0.09332219
129	0xbc2d0cb1	-0.010562108
130	0xbd2d6319	-0.042330835
131	0x3d831042	0.06399585
132	0xbddfc7a0	-0.10926747
133	0xbdd367cc	-0.10322532
134	0xbd95c3d6	-0.07312743
135	0x3dc87e06	0.09789662
136	0xbe383f2f	-0.17992853
137	0xbcb0ae6a	-0.021567542
138	0xbdb3950a	-0.08768661
139	0xbc334d0a	-0.0109436605
140	0x3cc36b21	0.023854794
141	0x3cf98ff3	0.030464148
142	0xbe004f27	-0.12530194
143	0x3d1f5df5	0.038907964
144	0xbdbd21eb	-0.09234985
145	0xbbcc4200	-0.0062334538
146	0xbe2d3feb	-0.16918914
147	0xbca966d2	-0.020678911
148	0xbab216b7	-0.0013587092
149	0xbd19ce7a	-0.037550427
150	0xbc4be7f5	-0.01244544
151	0xbd85f613	-0.065410756
152	0x3e070017	0.13183628
153	0xbd2b7eed	-0.041869093
154	0x3d08fbbf	0.03344321
155	0x3babe06d	0.0052452595
156	0xbdaefdc8	-0.08544499
157	0x3ccdd306	0.025125038
158	0xbddc7ddd	-0.10766194
159	0xbdbc6034	-0.09198037
160	0x3cee968d	0.029124523
161	0xbd36d6aa	-0.044638313
162	0xbd5009e2	-0.050790675
163	0xbcb340a8	-0.021881416
164	0x3c81f7f8	0.015865311
165	0x3d3ab0ee	0.04557889
166	0x3d5b03ce	0.053470425
167	0xbdb1174e	-0.08647023
168	0xbda242eb	-0.0792292
169	0xbd87676e	-0.066115245
170	0xbdc28983	-0.094988845
171	0xbce4b540	-0.027918458
172	0x3b70e12b	0.0036755304
173	0xbd712cd7	-0.058880653
174	0xbd84b95e	-0.064806685
175	0x3d36531e	0.04451286
176	0xbd825214	-0.063633114
177	0x3d1d143e	0.038349383
178	0x3bbb00cc	0.005706882
179	0x3d2eeaee	0.042704515
180	0xbceb79b8	-0.028744563
181	0x3df20e5f	0.11819147
182	0x3c24634b	0.010033439
183	0x3d6e6321	0.058200005
184	0xbccf486d	-0.02530309
185	0x3d0bdded	0.03414719
186	0x3d2413f5	0.040058095
187	0x3da6dc43	0.0814748
188	0x3d12437c	0.03570889
189	0xbc1a223e	-0.009407578
190	0xbd84ea98	-0.06490058
191	0x3d101fa0	0.03518641
192	0xbce10b4e	-0.02747121
193	0xbdb98322	-0.09058215
194	0xbde5f856	-0.11229007
195	0xbdf2b7bf	-0.11851453
196	0xbd016706	-0.03159239
197	0xbd8bdd3e	-0.06829308
198	0x3dd197c7	0.10234027
199	0x3d899979	0.06718726
200	0xbd9e83ba	-0.077399686
201	0xbcc2929b	-0.023751548
202	0x399ec0f7	0.00030279878
203	0x3d6a7837	0.057243552
204	0x3d76064d	0.060064603
205	0xbde7530d	-0.112951376
206	0xbd93c6f1	-0.072156794
207	0x3b06bb88	0.0020558555
208	0x3da34d32	0.07973708
209	0xbdbfb1ac	-0.0936006
210	0x3d92e52e	0.07172619
211	0xbda4118a	-0.08011158
212	0xbd9baf4e	-0.07601796
213	0x3ceab9a8	0.02865298
214	0xbe3c1808	-0.18368542
215	0x3d91e558	0.07123822
216	0xbd3782a1	-0.04480231
217	0x3dd27c52	0.102776185
218	0x3d87ad74	0.066248804
219	0x3cea833d	0.028627032
220	0xbc9bcb13	-0.019017732
221	0xbd7faf27	-0.062422898
222	0x3d1b84ab	0.03796832
223	0x3ce1686a	0.027515609
224	0x3dbc49a2	0.09193732
225	0x3d16290d	0.036660243
226	0xbbb8362e	-0.005621693
227	0xbd005dc0	-0.031339407
228	0xbca59f60	-0.020217597
229	0x3cbd242f	0.023088543
230	0x3c8b95e5	0.017039249
231	0x3d9eea69	0.07759554
232	0xbd7f17e5	-0.062278647
233	0xbdcab079	-0.09896941
234	0x3dde0291	0.10840333
235	0xbc3cfea4	-0.01153532
236	0x3d3e6314	0.046481207
237	0xbdba6e8c	-0.091031164
238	0x3d8bddd1	0.068294175
239	0x3d942fd8	0.07235688
240	0x3d6db3c6	0.058032773
241	0x3d97388d	0.07383833
242	0xbd460a15	-0.04834946
243	0xbd40bd43	-0.047055494
244	0x3ce31cee	0.027723756
245	0xbd96199a	-0.07329102
246	0xbdaeba85	-0.085316695
247	0xbb90db5e	-0.004420682
248	0xbdbfc8ac	-0.09364447
249	0xbdcf7b31	-0.10130919
250	0x3d267900	0.04064274
251	0x3dd12df1	0.10213841
252	0xbe03d9c3	-0.12876038
253	0xbd334e06	-0.04377558
254	0x3d1d0bba	0.03834126
255	0x3d0540dc	0.032532558

fc.0.bias f4 [128]
0	0xbadc623f	-0.0016813948
1	0xbd69ab45	-0.0570481
2	0x3dddad1e	0.10824035
3	0xbb00ba85	-0.0019642424
4	0x3e25a60b	0.16176622
5	0x3d03b634	0.032156184
6	0x3d9fe2f4	0.0780696
7	0x3df620ed	0.12017999
8	0x3e3a6db6	0.18205914
9	0x3d8f3f03	0.069944404
10	0x3cbc755f	0.023005186
11	0xbba5d39f	-0.0050606276
12	0x3d899da1	0.067195185
13	0xb940ca2a	-0.00018385859
14	0xbaf5bfdd	-0.0018749196
15	0x3bf13edb	0.0073622293
16	0x3d9ea8c7	0.077470355
17	0x3d364fb4	0.044509605
18	0x3e1b1988	0.15146458
19	0x3d955f34	0.07293549
20	0x3dfd89e2	0.12379815
21	0x3daad9fc	0.083423585
22	0x3d752de9	0.059858236
23	0x3cde0b33	0.02710495
24	0x3d248b53	0.040171932
25	0x3d2d50b6	0.0423133
26	0xbb53ada0	-0.0032299533
27	0x3db54da8	0.088527024
28	0x3e1778f0	0.14792228
29	0x3dd6c798	0.10487288
30	0x3adab4bc	0.0016685943
31	0x3e05076b	0.12991111
32	0xb9818a82	-0.00024707994
33	0x3e00db30	0.12583613
34	0x3df4a1d6	0.1194493
35	0x3dee404d	0.11633358
36	0x3b63a82f	0.0034737696
37	0x3dd16190	0.10223687
38	0x3df088f5	0.117448725
39	0x3e04cc9e	0.1296868
40	0x3dee78a0	0.11644101
41	0x3dcea354	0.10089746
42	0x3e1aac82	0.15104869
43	0x3d789ebd	0.06069826
44	0xb9dd8ca4	-0.0004225719
45	0xbc123f68	-0.00892625
46	0x3daca54b	0.08429965
47	0x3cd80204	0.026368149
48	0x3e10d0ae	0.14142105
49	0x3def031d	0.11670516
50	0x3d2bd7df	0.041953918
51	0x3e20070d	0.1562769
52	0x3bd636f2	0.0065373117
53	0x3df53290	0.11972535
54	0x3dc0adb1	0.09408129
55	0xbae50d61	-0.0017475301
56	0x3d070874	0.032967046
57	0x3d6a8075	0.057251412
58	0xba87e31b	-0.0010367365
59	0x3c9cae8d	0.019126201
60	0x3d8fd525	0.07023076
61	0x3be074b5	0.00684985
62	0x3de06da1	0.1095841
63	0xbb04a617	-0.0020240599
64	0x3e128d83	0.14311795
65	0x3d27183f	0.040794607
66	0x3e2047f9	0.15652455
67	0x3e087388	0.13325322
68	0xbb188694	-0.0023273574
69	0x3db9d8a6	0.090745255
70	0x3d13ff6d	0.036132265
71	0xb8bbe5b0	-8.9596375e-05
72	0x3dea1898	0.11430472
73	0x3dccdf50	0.10003531
74	0x3ddf9814	0.109176785
75	0x3e069a4e	0.131448
76	0x3e00128d	0.12507077
77	0x3dadd073	0.08487024
78	0x3d8745e6	0.06605129
79	0x3dbe22e3	0.09283998
80	0x3b4834d3	0.0030549064
81	0x3df9aa39	0.121906705
82	0x3df205d1	0.11817516
83	0x3d484eca	0.048903264
84	0x3c992086	0.018692266
85	0x3e197c52	0.1498883
86	0x3e00b56d	0.12569208
87	0x3dee2dd0	0.11629832
88	0xbaf6cf5a	-0.0018830106
89	0x3d90b721	0.07066179
90	0xbc1eb083	-0.009685638
91	0x3d46f9ee	0.048578195
92	0x3abc56a4	0.0014369083
93	0xba12a19a	-0.00055935385
94	0x3df436c9	0.11924512
95	0xba88407a	-0.0010395192
96	0x3dd13e56	0.10216968
97	0x3dbfe57f	0.09369945
98	0xbb999786	-0.0046872525
99	0x3e28f324	0.16499001
100	0x3d22e619	0.03977022
101	0x3dfd9689	0.12382228
102	0xbbd61b74	-0.0065340344
103	0xbd00c9d0	-0.031442463
104	0x3d6a2b5f	0.05717027
105	0x3b0b7860	0.0021281466
106	0x3db9ad8a	0.09066303
107	0x3bb6e522	0.005581514
108	0xbccc1b1f	-0.024915276
109	0x3de3cef6	0.11123459
110	0x3d0ca9c2	0.03434158
111	0x3e0a985d	0.13534684
112	0x3df1fa17	0.11815279
113	0x3db93ce8	0.0904482
114	0xbb160f13	-0.0022897169
115	0xbb22722a	-0.0024787285
116	0x3c906d34	0.017630197
117	0xbabae7f7	-0.0014259805
118	0x3e2736a6	0.1632944
119	0x3dd34b51	0.103171
120	0x3d8af842	0.06785633
121	0x3da9e180	0.08294964
122	0xb90c859a	-0.00013401211
123	0x3e0db6e2	0.13839296
124	0x38ba23f0	8.875865e-05
125	0x3cff1bd9	0.031141208
126	0x3cc15cfd	0.02360391
127	0x3d8ccdea	0.068752125

fc.2.weight f4 [32, 128]
0	0xbdabfdc7	-0.083980136
1	0x3df13d96	0.11779325
2	0x3dfa2c65	0.12215499
3	0x3d99d321	0.07510973
4	0x3e241241	0.16022588
5	0x3d687ee9	0.056761656
6	0xbb1a2fe5	-0.0023527083
7	0x3d9a1ba2	0.07524802
8	0x3df8c1e2	0.12146355
9	0x3b840385	0.00402874
10	0x3d03def7	0.032195058
11	0xbd47143e	-0.04860329
12	0x3d257887	0.040398147
13	0x3c53efab	0.012935559
14	0x3d36fa74	0.044672444
15	0x3d202d83	0.039105903
16	0x3e105a38	0.14096916
17	0x3e0d5063	0.13800196
18	0xbe0e2e50	-0.13884854
19	0x3d09d41e	0.033649556
20	0xbdcd35ab	-0.10020002
21	0x3d9a6dbd	0.07540462
22	0xbe03c3ad	-0.12867613
23	0x3d6c9742	0.05776144
24	0x3e430a5c	0.1904692
25	0x3db61a47	0.08891731
26	0x3dcc572f	0.099775665
27	0xbb398ac2	-0.0028311466
28	0xbe7314bf	-0.23738383
29	0x3c54518f	0.012958898
30	0xbdc9943f	-0.09842729
31	0xbdcb68d6	-0.09932105
32	0xbd96ef03	-0.073698066
33	0x3baf94fd	0.005358337
34	0xbe288914	-0.16458541
35	0x3e4541d5	0.19263394
36	0xbe8020ef	-0.25025126
37	0x3e0f22b1	0.13978077
38	0x3d8a9e13	0.067684315
39	0x3c17ef37	0.009273342
40	0x3dcc8f6c	0.09988293
41	0xbe056049	-0.13025011
42	0xbe3c88e9	-0.18411602
43	0x3d412427	0.04715362
44	0x3deac8f3	0.11464109
45	0xbc768cf8	-0.015048258
46	0x3d444976	0.04792162
47	0xbcc9b394	-0.024621762
48	0xbe02dade	-0.12778804
49	0x3d9928bf	0.07478475
50	0xbd3ee432	-0.046604343
51	0x3b2d0a3b	0.0026403803
52	0x3ca048a3	0.019565886
53	0xbdc693c0	-0.0969615
54	0x3bd93ddd	0.006629689
55	0xbc146134	-0.009056378
56	0xbd609b26	-0.05483546
57	0x3c1698f6	0.009191742
58	0x3dc850aa	0.097810104
59	0x3e029331	0.12751462
60	0x3cda716f	0.026665417
61	0x3b6c8680	0.003609091
62	0xbdde1bd9	-0.10845155
63	0x3d52f8e6	0.0515069
64	0x3dac7f3a	0.08422704
65	0x3c1729f5	0.009226312
66	0x3d07ad5c	0.033124313
67	0x3e66b23f	0.22528933
68	0xbce9ebe0	-0.028554857
69	0x3db10a73	0.08644571
70	0x3e351218	0.17682683
71	0xbca478bf	-0.020077107
72	0xbe0a91bc	-0.13532156
73	0xbd66bb49	-0.056330953
74	0xbc75b7d7	-0.014997444
75	0xbdc30f35	-0.09524385
76	0xbe2699ee	-0.16269657
77	0xbd9ec785	-0.07752899
78	0xbd41f26d	-0.047350336
79	0x3b5cfba9	0.0033719337
80	0x3e1f4988	0.15555394
81	0xbde55f2f	-0.111997955
82	0x3cfa0a04	0.030522354
83	0x3d264164	0.040589705
84	0xbc5547dc	-0.013017621
85	0xbdf4dce9	-0.11956198
86	0xbb79d877	-0.0038123408
87	0x3da77ea7	0.08178454
88	0x3d0a7672	0.033804365
89	0x3d05f9d8	0.032708973
90	0xbbacd459	-0.0052743373
91	0xbdd169f0	-0.10225284
92	0xbd902bb1	-0.070395835
93	0xbc4ea797	-0.012613199
94	0xbe1e52ba	-0.15461245
95	0x3d3509a2	0.04419864
96	0xbd67bc34	-0.05657597
97	0x3cdd46eb	0.027011355
98	0x3d05d811	0.03267676
99	0x3c9a60a6	0.018844914
100	0x3db370da	0.08761759
101	0x3dbba54a	0.09162386
102	0xbd3ac8b1	-0.04560155
103	0xbbb2a27c	-0.0054514986
104	0xbda5172d	-0.08061061
105	0xbd765ac5	-0.06014516
106	0x3d931eb5	0.07183591
107	0xbd2683e4	-0.040653124
108	0xbd26d775	-0.04073282
109	0x3e2afefd	0.16698833
110	0x3db1b627	0.08677321
111	0xbdace2a5	-0.084416665
112	0x3cc635f1	0.024195643
113	0x3d3cd038	0.04609701
114	0xbccda1f9	-0.025101649
115	0x3d853c06	0.06505589
116	0x3c7d2d43	0.015452686
117	0xbcb8e14c	-0.022568367
118	0xbe143135	-0.14471896
119	0xbd04909a	-0.032364465
120	0xbdc29e01	-0.09502793
121	0xbd9854fa	-0.07438083
122	0x3d719c41	0.058986906
123	0xbe3121f1	-0.17298104
124	0x3d4502c0	0.048098326
125	0x3dd3d529	0.103433914
126	0xbd1ec5b1	-0.038762752
127	0x3d810b75	0.063010134
128	0x3d43c381	0.04779387
129	0x3d05a910	0.032631934
130	0x3d90499b	0.07045289
131	0xbdd1be47	-0.10241371
132	0xbe30938e	-0.17243788
133	0xbcb5bc0f	-0.0221844
134	0xbdd465a0	-0.10370946
135	0xbd5601ce	-0.052247815
136	0xbdd81b6c	-0.10552105
137	0x3d823d05	0.06359295
138	0x3b8e5d9f	0.0043446566
139	0xbe10ec93	-0.14152746
140	0xbdd096df	-0.101850264
141	0xbc8e226d	-0.0173504
142	0xbda4c9bb	-0.080462895
143	0x3d5d6653	0.054052662
144	0xbe1c36a1	-0.15255214
145	0xbdc8fd2d	-0.098139144
146	0xbe205ecd	-0.15661164
147	0x3dbaa4a6	0.091134354
148	0xbd3d7ed0	-0.046263516
149	0x3d470f54	0.048598602
150	0xbcbb1771	-0.022838326
151	0xbdb81648	-0.08988625
152	0xbdee7268	-0.11642915
153	0x3d5af930	0.0534603
154	0x3deb8b55	0.11501185
155	0xbc832b05	-0.016011724
156	0x3d51c501	0.05121327
157	0xbdbad09d	-0.09121821
158	0xb9bf47a0	-0.00036483724
159	0x3da2079e	0.07911609
160	0x3d30b2b5	0.04313918
161	0xbdeedf3f	-0.116636746
162	0x3d270105	0.040772457
163	0xbdc4073f	-0.095716946
164	0xbdae683b	-0.08515974
165	0x3dcdaf00	0.10043144
166	0xbc7a0dce	-0.01526208
167	0xbda3e832	-0.08003272
168	0xbc8aa59d	-0.016924674
169	0xbdb3e49e	-0.0878384
170	0xbdb982ee	-0.09058176
171	0xbd950697	-0.072766475
172	0xbdcd32d6	-0.10019462
173	0xbd8718cd	-0.06596527
174	0xb8e4151c	-0.00010875819
175	0x3d7a98c2	0.061180837
176	0x3b3ad86b	0.0028510343
177	0xbc271dd1	-0.01019998
178	0xbb9f68f2	-0.0048648054
179	0xbda0ef4e	-0.07858144
180	0x3d13ed04	0.036114708
181	0xbd7539bc	-0.059869513
182	0xbd45fced	-0.048336912
183	0xbe04b975	-0.12961371
184	0xbd46244d	-0.048374463
185	0x3dad3ef7	0.08459275
186	0xbd5c9a56	-0.053858124
187	0xbc23fc9c	-0.010008957
188	0x3da67aff	0.081289284
189	0xbdf46d64	-0.11934927
190	0x3d47af0a	0.048750915
191	0x3b60e247	0.003431456
192	0x3e2d11bc	0.16901296
193	0xbd3b21ba	-0.04568646
194	0xbd29eaa4	-0.041483536
195	0x3cc8c5a8	0.024508312
196	0xbdd5ba35	-0.10435907
197	0x3d8641be	0.06555508
198	0x3d828268	0.06372529
199	0x3bd6c495	0.006554196
200	0xbce2a13f	-0.027664779
201	0xbcfa70c2	-0.030571345
202	0xbcacfdd1	-0.021117123
203	0x3dbf8dcb	0.09353217
204	0xbd24a6fe	-0.04019832
205	0xbd4f95b1	-0.050679866
206	0x3e018798	0.12649381
207	0xbc349801	-0.011022569
208	0xbe006654	-0.12539035
209	0x3a9781a8	0.0011559026
210	0x3bdb018f	0.0066835354
211	0x3d916c42	0.07100727
212	0xbdd8cf60	-0.10586429
213	0x3d76ea3c	0.060281977
214	0x3dd9a2ab	0.106267296
215	0x3cdc5a86	0.026898634
216	0x3c5a0680	0.013307214
217	0xbd591a54	-0.053003624
218	0xbc8fdda4	-0.017561741
219	0xbdf87685	-0.12131981
220	0x3cdbbb83	0.026822811
221	0x3cd67b4c	0.02618184
222	0x3d05b911	0.032647196
223	0xbde6dde0	-0.11272788
224	0x3d9a7bb8	0.07543129
225	0xbda5ba50	-0.08092177
226	0xbd72130d	-0.0591002
227	0x3e489e11	0.19591548
228	0xbdf5f4ca	-0.120095804
229	0x3c648008	0.013946541
230	0xbd1ca664	-0.03824462
231	0xbcca0373	-0.024659848
232	0xbd45f88c	-0.048332736
233	0x3d797b99	0.060908888
234	0x3d44a144	0.048005357
235	0xbdba9610	-0.091106534
236	0x3c809938	0.01569806
237	0xbda3b498	-0.0799343
238	0xbd804aa1	-0.06264234
239	0x3dc0d42d	0.09415469
240	0xbdccb79a	-0.09995957
241	0xbcfc55dc	-0.03080266
242	0xbd98021d	-0.07422278
243	0x3da94149	0.08264405
244	0x3d570712	0.052496977
245	0xbd997550	-0.07493079
246	0xbd83cd96	-0.06435697
247	0xbd1e6d43	-0.03867842
248	0xbdc8b5a5	-0.09800271
249	0xbcc91a78	-0.024548754
250	0xbe02bb57	-0.12766777
251	0x3e4370cb	0.19085996
252	0xbd3ef577	-0.046620812
253	0xbd7800bb	-0.06054757
254	0x3bc028dd	0.0058642463
255	0xbd5e359a	-0.054250337

fc.2.bias f4 [32]
0	0xba4cae00	-0.00078079104
1	0xbcfe2e7c	-0.031028025
2	0xbd0c59da	-0.034265377
3	0x3d853fe9	0.065063305
4	0x3d9db643	0.07700779
5	0xbd612ac2	-0.054972418
6	0xbc5fb890	-0.013654843
7	0x3d1474fe	0.036244385
8	0x3dac9c3d	0.084282376
9	0xbcce0448	-0.025148526
10	0x3c58eb50	0.013239697
11	0xbd960b55	-0.0732638
12	0x3d3cc93e	0.046090357
13	0x3d794032	0.060852237
14	0x3d499936	0.04921838
15	0x3d7f7252	0.062364884
16	0x3ccce4bc	0.025011413
17	0x3d7cff9e	0.061767213
18	0x3c724498	0.014786862
19	0x3b55dbc0	0.0032632202
20	0xbd658616	-0.056036077
21	0x3d25523e	0.040361635
22	0x3d833a81	0.06407643
23	0xbc4834d0	-0.012219623
24	0xbd74e874	-0.059791997
25	0x3d1b0c56	0.03785356
26	0xbd95a27b	-0.07306381
27	0x3bc03bb0	0.0058664903
28	0xbce3d072	-0.027809355
29	0x3c5e40e0	0.013565272
30	0x3d0f3e7a	0.03497169
31	0xbc9dd65c	-0.019267254
